checkpoint/KG-ICL-4L/model_best.tar (torch, 889627 bytes, 390 tensors)

relation_encoder.start_relation_embeddings.weight f4 [1, 32]
00000000: 86b6 afbe 5825 f7bd c483 873e ca32 87be
00000010: 232e c6bd 68ec 06be 81b2 df3e ac6a b93e
00000020: b98b 88be 0b27 a7be 0b66 ab3e b946 83be
00000030: 9b9a 7e3e e7c2 823e 1859 c53d 995a b83e
00000040: 929a a7be 6241 9cbd d461 3abe dcc5 adbe
00000050: 769a 213e 5a59 b7be 2518 bcbe a9d0 bc3c
00000060: 36a4 2bbe 7e36 bdbe aa98 3a3d 0a53 933e
00000070: 0848 ea3e f4a1 14be f6fc 91be f4ae 8a3e
-0.34318942 -0.1206767 0.26467717 -0.26405936 -0.09676769 -0.1317612 0.43690875 0.36214197
-0.266691 -0.32646975 0.3347629 -0.25639895 0.24863665 0.25539324 0.09636134 0.3600662
-0.32735115 -0.07629658 -0.18201381 -0.33940017 0.15781578 -0.35810357 -0.3673717 0.023048716
-0.1676186 -0.36955637 0.045555748 0.2877429 0.4575808 -0.14514905 -0.28513306 0.27086604

relation_encoder.position_embedding.weight f4 [16, 32]
00000000: a69e 7b3e 34d9 cbbe cde1 7abe 9acd fd3d
00000010: 36e4 a6be 9d44 63bd 2a06 9fbe 8944 c13e
00000020: 33c1 213e 1fb4 db3e ddbc bcbc 52b8 653e
00000030: e945 eabe 6acf af3d fd84 b4be cbe6 b9be
00000040: 88f9 3c3e 0233 c93e 0660 b2be 25f7 8e3e
00000050: 4ad9 6a3e fb5b 863e 7778 963d ebc4 a9be
00000060: 27cf afbd d4be 983e 4c5a d9bd e82d 6cbe
00000070: 84d6 ca3d 18a0 74be 4285 70be 39ae 8fb7
00000080: 7159 713d a4a5 d53d e466 44be faa1 46be
00000090: e870 573e aeb3 d5bd 349a f13e ede1 63be
000000a0: 62d9 dabe 10e8 d23e 272c 9dbc f032 a63d
000000b0: d3f7 e4bc 23bc f8bd 1cdc 98bc 3c4d f5bd
000000c0: 4808 943e 3776 e1be 355a 9e3e 39a6 e03d
000000d0: 78fd 9abd b903 ccbd 5bee 30be 45f4 b43e
000000e0: 97bf 093f f435 23be 25c7 66ba eadc 5d3d
000000f0: c0c6 16be 5288 743e eab1 64bd ea5a fd3a
00000100: 4eaf 0000 dd89 0000 4a89 0080 e589 0000
00000110: 1f8a 0080 018a 0000 3e8a 0000 c68a 0080
00000120: 3b89 0080 e9a0 0080 1589 0080 0189 0000
00000130: d089 0080 0889 0000 9a89 0080 2d89 0000
00000140: 6c89 0080 f989 0080 5689 0000 5589 0000
00000150: e88a 0080 c688 0000 158a 0080 328a 0080
00000160: 6a9d 0080 0d8a 0000 1b89 0000 cb89 0080
00000170: 3589 0000 d989 0000 108a 0000 ce88 0000
00000180: c588 0000 248a 0080 1b8a 0080 9789 0080
00000190: 9193 0000 8b89 0080 f588 0080 1d89 0080
000001a0: a589 0080 8989 0080 0e89 0080 dd8b 0000
000001b0: 3c8a 0000 ec89 0080 8089 0080 ce88 0000
000001c0: bfa4 0080 b889 0080 888b 0000 1b89 0080
000001d0: 22ab 0000 0b89 0000 f888 0000 af8a 0000
000001e0: 8a89 0080 7589 0000 1889 0080 c389 0000
000001f0: b489 0080 6589 0080 0c89 0000 e988 0080
00000200: 8b89 0080 769f 0080 f489 0000 3689 0080
00000210: de88 0000 5289 0000 3c89 0080 208a 0080
00000220: a089 0000 2789 0000 108a 0080 1a89 0000
00000230: a789 0080 8789 0080 dc89 0000 a18a 0080
00000240: 8fad 0080 6d89 0080 0e8a 0000 9c89 0080
00000250: d388 0080 cf89 0080 4d89 0000 d989 0000
00000260: dc89 0000 af8a 0080 278a 0080 2a8a 0080
00000270: 4e8e 0080 c48a 0000 af89 0080 e789 0080
00000280: db72 6f3c f713 393d c5c4 3b3e 04c5 54be
00000290: a4f1 9fbe a8bc b13d ce27 3a3e bd38 0b3e
000002a0: f620 883b 7f80 c0bc 1283 32be bfe0 13bd
000002b0: ca63 263e 2be0 103d fade 893e 8682 5e3d
000002c0: 070b 933b ff8d 20be 8132 23be 7657 1e3e
000002d0: 62db de3d d27d 823e b586 cbbd 7747 563b
000002e0: d05f 263e 5725 66be 1d74 70be 526d e63c
000002f0: e5e8 1b3e 92b4 23be 0b37 64be f147 273e
00000300: ecc0 bdbe 8ef9 743e 75a7 0abe 4f9f 9a3e
00000310: 7de6 02be 9684 b93e 561b a93e 9465 95be
00000320: 5aaa 7e3e 32d3 84be e9d7 1c3d d46f 663e
00000330: fc04 e7be 666b 93be 127e 113c de60 6a3e
00000340: fc70 40be 19dd ab3d 83ae 003e 03ed 2b3e
00000350: af31 96be 9f1f fabd 361e 013c 8c7b ac3e
00000360: 3d44 3dbe 432a c83e e607 95bd fb2a 0f3e
00000370: f0b9 28be a361 74be a1e9 0bbe bed0 b6be
00000380: c088 0080 f689 0000 298a 0080 d28d 0080
00000390: cc88 0080 6889 0000 f388 0000 9889 0000
000003a0: 5a89 0080 d290 0080 a589 0080 cf88 0000
000003b0: fb89 0000 fe94 0080 888a 0000 5b8a 0000
000003c0: 5f8a 0000 4189 0080 9c89 0080 b789 0080
000003d0: 058a 0000 e488 0080 0a8a 0000 318a 0000
000003e0: 188a 0000 138a 0080 1289 0080 3d89 0000
000003f0: 8a8b 0080 1989 0000 d089 0000 2a89 0080
0.24572238 -0.3981415 -0.24500199 0.12392731 -0.32595986 -0.055485357 -0.3105939 0.377476
0.15796356 0.4291086 -0.023039276 0.22433594 -0.45756462 0.08584483 -0.35257712 -0.36308894
0.18454564 0.39296728 -0.34838885 0.2792293 0.22934452 0.2624205 0.073471956 -0.3315805
-0.08584433 0.2983309 -0.10612926 -0.23064387 0.09904197 -0.23889196 -0.23488334 -1.7128057e-05
0.05892319 0.10431984 -0.19179875 -0.19397727 0.21039164 -0.10434662 0.4718796 -0.22254153
-0.42743975 0.41192675 -0.019186093 0.08115184 -0.027950203 -0.12145259 -0.018659644 -0.11977622
0.28912568 -0.44035503 0.30928198 0.109692045 -0.075678766 -0.099616475 -0.17278425 0.35342613
0.5380797 -0.1593855 -0.00088034786 0.05416576 -0.14724255 0.23880127 -0.055833735 0.0019329463
6.2887e-41 4.9456e-41 -4.925e-41 4.9467e-41 -4.9549e-41 4.9506e-41 4.9592e-41 -4.9783e-41
-4.9229e-41 -5.7724e-41 -4.9176e-41 4.9148e-41 -4.9438e-41 4.9158e-41 -4.9362e-41 4.921e-41
-4.9298e-41 -4.9495e-41 4.9267e-41 4.9265e-41 -4.983e-41 4.9065e-41 -4.9534e-41 -4.9575e-41
-5.647e-41 4.9523e-41 4.9184e-41 -4.9431e-41 4.922e-41 4.945e-41 4.9527e-41 4.9076e-41
4.9064e-41 -4.9556e-41 -4.9543e-41 -4.9358e-41 5.2937e-41 -4.9341e-41 -4.9131e-41 -4.9187e-41
-4.9378e-41 -4.9338e-41 -4.9166e-41 5.0173e-41 4.9589e-41 -4.9477e-41 -4.9326e-41 4.9076e-41
-5.91e-41 -4.9404e-41 5.0054e-41 -4.9184e-41 6.1391e-41 4.9162e-41 4.9135e-41 4.975e-41
-4.934e-41 4.931e-41 -4.918e-41 4.942e-41 -4.9399e-41 -4.9288e-41 4.9163e-41 -4.9114e-41
-4.9341e-41 -5.7204e-41 4.9488e-41 -4.9222e-41 4.9099e-41 4.9261e-41 -4.923e-41 -4.955e-41
4.937e-41 4.9201e-41 -4.9527e-41 4.9183e-41 -4.938e-41 -4.9336e-41 4.9455e-41 -4.973e-41
-6.2261e-41 -4.9299e-41 4.9525e-41 -4.9365e-41 -4.9083e-41 -4.9436e-41 4.9254e-41 4.945e-41
4.9455e-41 -4.975e-41 -4.956e-41 -4.9564e-41 -5.105e-41 4.978e-41 -4.9392e-41 -4.947e-41
0.014614786 0.045185056 0.1833678 -0.2077828 -0.31239045 0.086785614 0.18179247 0.13595863
0.00415432 -0.023498772 -0.17432812 -0.036103006 0.16249004 0.035370033 0.2692793 0.054323696
0.0044873985 -0.15679167 -0.15937234 0.15463051 0.10881688 0.25486618 -0.09937803 0.0032696405
0.16247487 -0.22475182 -0.23481794 0.0281283 0.15225561 -0.15986851 -0.22286622 0.16336037
-0.3706125 0.23923323 -0.13540442 0.30199668 -0.12783237 0.36233968 0.33028668 -0.2917906
0.24869671 -0.2594238 0.038291845 0.22503597 -0.4512099 -0.28792876 0.008880155 0.22888514
-0.187931 0.083917804 0.12566571 0.16789632 -0.2933478 -0.122130625 0.007880738 0.3368801
-0.18483062 0.39094743 -0.07276897 0.1398124 -0.1647718 -0.2386537 -0.13663341 -0.35706133
-4.9057e-41 4.9491e-41 -4.9563e-41 -5.0876e-41 -4.9073e-41 4.9292e-41 4.9128e-41 4.936e-41
-4.9272e-41 -5.1952e-41 -4.9378e-41 4.9078e-41 4.9498e-41 -5.3448e-41 4.9696e-41 4.9633e-41
4.9638e-41 -4.9237e-41 -4.9365e-41 -4.9403e-41 4.9512e-41 -4.9107e-41 4.9519e-41 4.9574e-41
4.9539e-41 -4.9532e-41 -4.9172e-41 4.9232e-41 -5.0057e-41 4.9181e-41 4.9438e-41 -4.9205e-41

relation_encoder.self_loop_embedding.weight f4 [1, 32]
00000000: 8c91 8ebe 06d8 853e b9c0 f4bc 2501 aa3d
00000010: b9d8 aeba 61ef c3be 679d 05be d0f1 b43e
00000020: f83f 433e 1a59 8abe ab2e bebe 9c47 ceb9
00000030: e7d9 afbd c857 fb3d ff2f 93be c26c c23e
00000040: d56d 9f3e 05c3 3ebe e64a c33d 0e71 e03d
00000050: 5b02 be3e cdcd 70bd 17ee b7bb cbaf ef3d
00000060: d0e3 333e f255 41be a6dc 9cbe c934 f1bb
00000070: 809b 793d afc3 3b3e 852e a73e 9f08 6cbb
-0.27845418 0.26141375 -0.029877054 0.083009996 -0.0013339735 -0.3826857 -0.13048325 0.35340738
0.19067371 -0.27021104 -0.3714498 -0.00039344735 -0.085864834 0.12272602 -0.28747556 0.379736
0.31138483 -0.18629082 0.0953577 0.109590635 0.37111172 -0.058790017 -0.0056130993 0.11703452
0.17567372 -0.18880442 -0.3063709 -0.007361029 0.060939312 0.18336366 0.3265268 -0.003601588

relation_encoder.W_ht2r.0.weight f4 [32, 96]
00000000: 3ad9 553d f5fa cebd a82f 0ebe 2b7d 12be
00000010: 03c4 0a3e 05a3 87bd 4bb6 9bbd 21fd 023e
00000020: 0d51 ce3d 4870 b3bd bdbd 46bd 6bc7 913d
00000030: 9ad8 f13c ae83 a23d 3f9a abbe 08b2 ecbd
00000040: d3b7 99bd 0029 883d 1b28 213e c44b 95bd
00000050: f520 29bd c647 383e 434f fe3c ef1c 28be
00000060: a94d 7e3d cae1 963d 497d 07be 0ebc 20be
00000070: 628a 4a3e 089e 00be 1a30 84bc cf1e 22bd
00000080: c426 70be 8414 053e f3ba 2f3e e0d7 a03d
00000090: 49dc 4f3d 7400 aa3d f01b 453e 09f7 10be
000000a0: 42ef 5d3e c893 b4bd 3e4b b4bd a1ae 7bbe
000000b0: e6d8 2f3e 5dd4 28be 82c5 babd 358f 08be
000000c0: 5b97 343e 199e 1f3d 4d01 3f3d f559 3cbe
000000d0: 83a1 19be 1dc9 bbbd 0099 02be eb9b e0bd
000000e0: c882 d2bd 6baf cf3d 7fb5 f73d b56f 243e
000000f0: 06c1 a6bd 1c11 54be 3d6b 8dbc 3c64 913d
00000100: 1fd7 a53d 4b23 0d3d 5c52 323e f8a7 0fbe
00000110: fdd9 d83d b6ac 253c 7ab7 32be 2a82 3bbe
00000120: 3926 bb3d 0e5b 10be c960 3dbd fd85 9bbd
00000130: 7a60 a9bd e9c8 173e e691 0f3e 5b68 eabc
00000140: bdfa 6c3d d9f0 90bd e512 243e dbb8 e7bc
00000150: c4c8 cbbd bc5f 05be abef 63bd 2f39 b5bc
00000160: efb8 79bd 7d85 dc3d 5d3e a93d 65c8 0abc
00000170: b9c1 dfbd 8f1e 0fbe a0ba 3dbe ed34 7cbc
00000180: 4c15 3ebe 598e c0bd 80ce c8bd de60 763d
00000190: 8bcf a83d 4c28 883e f449 c7bd f7b0 183e
000001a0: 18f1 433e 1e9e 15be 7c39 163e 9071 223e
000001b0: 502e a13d 2247 de3d 6c6b d33c c3f1 7e3d
000001c0: 4cd1 3e3d 2536 a6be 8f4f 823d 90d1 a4be
000001d0: 0ab1 5e3e 0fd4 42be 57b5 92bd 06c0 453e
000001e0: 3248 cc3c 2615 d0bd 9fdd cbbd f1f6 1f3e
000001f0: 4fb3 fdbd 14c4 4d3e 937c 113e dccb dc3d
00000200: e113 013e 1fa3 18be 646b 423e 1206 bd3d
00000210: c2a2 233d 7879 f8bd 48de 1dbe 0b81 c33d
00000220: 7aa9 383e 891d 13bc 5551 173e 9114 adbd
00000230: b6b3 d73c b9bf d83d 89fd 4e3d 099e 423e
00000240: 5e8a b03d 0700 d7bd 1faf ae3d 7391 553d
00000250: c154 c73c 6d92 5f3e f401 28be ea95 4e3e
00000260: 286f 8abc ab92 25be 368b a3bd fe92 a8bd
00000270: 50a7 253e 22c7 2e3e 04d0 a9bd c0ae 4c3e
00000280: 307a 5dbd f69c 813d 63ab c9bd a85c ec3b
00000290: 9c9b 23bd 0c17 c23d c88f febb 1260 53be
000002a0: ca61 87ba af9f 2ebc 7af5 1ebe 00cb 043e
000002b0: f473 44bd 5a50 a03c 6163 043d fde4 f6bd
000002c0: b956 253c 0e9a 973c 7bb4 023d 932f 0dbd
000002d0: ed93 1fbd a627 1b3e 0330 523e c9fa 23ba
000002e0: 3748 093d 7202 773e b95c 2cbd 4189 87bc
000002f0: 0132 133d ff36 163e 310c 643e 350f 5fbe
00000300: d3ff 76be fc7d e4bd 1a8e 7d3d e0fe 93bd
00000310: 719c e53c 9fb9 393d 5721 0dbe 8875 a1bd
00000320: 5a62 7b3e a59a 2b3e 452a c13d 39ad e1bd
00000330: a3ad 3ebd d650 5e3d df99 11be d1b4 bebd
00000340: 96d3 6a3d 526a 90be b0de 173e 6c03 27be
00000350: 5fa5 50be 98fd 0c3e 689f 69bd e740 d43d
00000360: 973d 153e ef56 6a3d bd9b 653e 6c19 113e
00000370: 007c 18be 7e09 1b3e 449a c5bd 2652 41be
00000380: a182 30be 142c 363d 8345 f0bd 7ff3 d7bb
00000390: 3385 6c3d 85d7 f9bc 9f5c 4abe 86c3 473e
000003a0: 747e 49bc 1229 52be b45a 20be b371 ba3d
000003b0: 6b35 60bd 0e2e a33d 6146 2a3e 5b9c e13a
000003c0: 0dd5 49be 3de4 4dbe 8abd 133d 8b8f 1c3d
000003d0: f02e 23bd 7584 f8bc 0338 f8bc b1d4 3e3e
000003e0: 1ee2 67bb 3287 3bbe 8a67 133d b677 3c3e
000003f0: b853 54bd 657e f13c 26f5 46bd df7e c53d
0.052209117 -0.1010646 -0.13885367 -0.1430556 0.13551335 -0.066228904 -0.07603129 0.12791874
0.10074053 -0.0876165 -0.048520792 0.07118114 0.029522229 0.07935272 -0.33516118 -0.11557394
-0.07505765 0.06648445 0.15737955 -0.07289842 -0.041291196 0.1799613 0.031043654 -0.16417287
0.06208578 0.073672846 -0.13231386 -0.15696737 0.19779351 -0.12560284 -0.016136218 -0.039580163
-0.23452288 0.12996107 0.17161159 0.07853675 0.05074719 0.08300868 0.19248939 -0.14156736
0.21673301 -0.088172495 -0.08803414 -0.24578334 0.17172584 -0.1648726 -0.09119703 -0.13335879
0.17635863 0.038969133 0.0466321 -0.18393691 -0.15003018 -0.09169219 -0.12753677 -0.10967239
-0.10278851 0.1014088 0.120951645 0.16058238 -0.08142285 -0.20709652 -0.01726305 0.07099196
0.08097672 0.034457486 0.1741423 -0.14028919 0.10588453 0.010111978 -0.17452803 -0.18311372
0.0913815 -0.14097235 -0.04623488 -0.075939156 -0.082703546 0.14822735 0.140205 -0.028614214
0.05785631 -0.07077188 0.16022833 -0.028286388 -0.099504024 -0.13024801 -0.055648487 -0.022121994
-0.060967382 0.10767648 0.08263848 -0.008470629 -0.109256215 -0.13976501 -0.18528223 -0.015393478
-0.18562812 -0.09402151 -0.09805012 0.060150973 0.08242711 0.26593244 -0.09730902 0.14911257
0.19134939 -0.14611098 0.14670366 0.15863633 0.078701615 0.10853411 0.025808059 0.06224228
0.04658632 -0.32463184 0.06362831 -0.32191133 0.21747223 -0.19026206 -0.07163494 0.19311532
0.02493677 -0.10160284 -0.0995438 0.15621544 -0.12387716 0.20094329 0.14207678 0.107810706
0.1260524 -0.14905976 0.18986279 0.092296734 0.03995014 -0.12132543 -0.15416825 0.09546097
0.180334 -0.00897921 0.1477712 -0.08451188 0.02633081 0.10583443 0.05053476 0.19005598
0.086201414 -0.10498052 0.085294954 0.052140664 0.024332406 0.21833201 -0.16406995 0.20174375
-0.016898707 -0.1616923 -0.07985537 -0.082311615 0.16177106 0.1706815 -0.08291629 0.19988537
-0.054071605 0.06328766 -0.098471425 0.007213194 -0.039943323 0.09477052 -0.007768605 -0.20642117
-0.0010328826 -0.010658189 -0.1552333 0.12968063 -0.047962144 0.019569565 0.032321338 -0.12055395
0.010091477 0.018506076 0.0319104 -0.0344692 -0.038959432 0.15151843 0.20526128 -0.00062553264
0.033516135 0.24122027 -0.042080615 -0.01654494 0.03593636 0.14669417 0.22270276 -0.21783145
-0.24121027 -0.11156842 0.061903097 -0.07226348 0.028028699 0.045343038 -0.1378225 -0.078837454
0.24549237 0.16758211 0.094318904 -0.11019368 -0.04655231 0.05427631 -0.14218853 -0.09311832
0.05733069 -0.28206116 0.14831042 -0.16309899 -0.20375584 0.13768613 -0.057036787 0.10363942
0.14574276 0.057211813 0.2242269 0.14169854 -0.14891052 0.1514034 -0.096485645 -0.18878993
-0.17237331 0.04447563 -0.11732008 -0.0065903063 0.057744216 -0.030498276 -0.19761895 0.1950818
-0.012298215 -0.2052348 -0.156596 0.09103718 -0.054738443 0.079677686 0.1662841 0.0017212735
-0.19710179 -0.20106597 0.03606943 0.03822283 -0.039839685 -0.030336598 -0.030300146 0.18635823
-0.003538258 -0.18313292 0.035987414 0.18405041 -0.051837653 0.029479215 -0.048573636 0.09643339

relation_encoder.W_ht2r.0.bias f4 [32]
00000000: e851 173c e15e a6bd e0d1 acbc 2324 e0bd
00000010: ffd4 a43b b0b8 6abb fed9 96bc a84f 5d3a
00000020: cd08 973c cdd7 9ebc debd 58bd b6dd 8fbb
00000030: fe7a f3bc 74b2 b0bc e017 7dbc 8066 17bd
00000040: f2ba b7bb 3cfe d0ba ba79 bbbb c1e4 e0bb
00000050: bce8 9dbc e0ff 143b de02 d6bc efa2 c7bc
00000060: a930 b23c eda4 c73b 22c2 fb3a af68 35bc
00000070: 51e7 0bbc 9f94 10bd c8d1 73bc 6542 5b3b
0.009235837 -0.081235655 -0.02109617 -0.109443925 0.005030274 -0.0035815649 -0.018414494 0.00084423507
0.018436814 -0.019390011 -0.052915446 -0.0043904437 -0.029721733 -0.021569468 -0.015447587 -0.036962986
-0.0056070024 -0.0015944908 -0.005721298 -0.006863207 -0.019276015 0.0022735521 -0.026124414 -0.024369685
0.021751719 0.0060926587 0.0019207636 -0.011072322 -0.008539037 -0.035297986 -0.014881559 0.0033456322

relation_encoder.W_ht2r.1.weight f4 [32, 96]
00000000: c268 d3bd 5a14 003e bf9a f4bd 7bc0 3ebe
00000010: 42b5 23be b145 27bd 6916 5abe b440 13bd
00000020: 9589 3c3a f220 b5bc 7d83 a23d e254 8bbd
00000030: 66d4 07be 1659 0fbe 78ce b1bd 4f1b 51bc
00000040: 742c 643d a81f 2cbd 415f d7bd e9ef 29be
00000050: f959 793c 513b 87bd 5bd7 b23d 10cb 113e
00000060: b0eb 503d ba31 66bd b972 213d 0217 b43d
00000070: 0bbd 493e d59d 0c3e e9f8 dbbd 2f7d 33bd
00000080: e95a adbd 42c6 bf3d fcf6 083e a9b5 34bd
00000090: 0332 bdbd c4ea 053d 6a6b a63c 33c5 823d
000000a0: 2021 05be e02a c13d 1906 39bd d808 2bbe
000000b0: 780b 07be 09d6 0f3d 97ab c8be 12d6 f7bd
000000c0: 0055 ea3d 4c50 babd 0721 a139 b893 1a3e
000000d0: 2ffe 8d3d 8172 ec3c de4a 4a3e c90a 48bc
000000e0: 406e a93d 71e0 2a3d 83f8 59bb e179 cd3c
000000f0: 1a6f 193e 8db8 153d 0aa7 a7be 392f 953c
00000100: 6f53 a33c 42dd 82bd e761 20bd 78d8 53be
00000110: a3ed 303d c987 83bd 8b1e 123e ff14 663d
00000120: 05b4 2a3e f859 a53d 5438 b4bc 93da 983d
00000130: 7174 bebd 2191 c7bd 5455 4cbe 6e29 5dbd
00000140: ed44 afbb 21f5 883e 7e89 16bd cec1 3fbe
00000150: 237a 913d 1af4 df3c c930 a3bd c5c0 b8bc
00000160: b129 c5bc aaed 1c3e 95e2 803d 1be7 24be
00000170: 634e 29be cd9b 01be 0d76 083e 2605 0dbe
00000180: 6187 31be 93ec f93d 2655 56bd 87d4 7c3e
00000190: c596 cbbd 078e 6f3d 51c6 14be b699 61be
000001a0: e239 16be 105c 48be 41bd 1f3e 15aa 82be
000001b0: eca7 9cbc 2d61 07bd 15ee 0d3e 1719 2abe
000001c0: 3089 80bd 1fd2 343e 1da8 13be ffc9 853c
000001d0: 0f02 31bd 5caf 8fbd 861a 2e3d 0fd9 63bb
000001e0: 8155 783e 1f71 143d 4919 0b3e dd91 883d
000001f0: 8822 7e3e 3c13 c3bc 28a2 eaba b409 f23d
00000200: 2cd7 e03d be7e b0bd 293f 09bd 3212 a73c
00000210: 9e9f 32be a9e1 53bd 5bd4 d73c 32fb 853e
00000220: 133e 2a3e f569 70bd c58c 32be 68d2 40bc
00000230: 52a6 94bd 1b4e 58bd 071c 68be 40ce d73c
00000240: 4caf f3bd a9e7 853d ac8f 6b3e 4323 2fbe
00000250: 671c 36be 1a7a 543e dea6 0fbe 4bb2 e1bb
00000260: d898 503d fa96 0fbd 0086 eab9 6f0f 87bd
00000270: 2e00 a43a 70f4 243e 71e4 03be 9660 373e
00000280: afa5 a3bd e078 3ebd d60b fabd 43b7 ebbc
00000290: 5f04 60bd f8a3 b1bd 9045 1e3d 5008 1fbd
000002a0: 8347 9abd 33db 32be 6939 eb3d 202e e33b
000002b0: 4942 10be 7f02 10bd f22e 08be 9dba 63bd
000002c0: f867 65be 768c 143c 397d ab3d 8a6a 2d3e
000002d0: 7329 f03c 2e41 693d 00f8 0e3d d0bc 42be
000002e0: 0775 87bc b3f0 a13d be23 4f3e 242a c6bd
000002f0: 4fa2 9d3d 2222 43be aebb 423e c92d 0abe
00000300: 597c 5f3c 79a3 ecbc 63f2 443e 9b23 0f3d
00000310: 3e22 d2ba 62ef 663e e423 a8bd d1f9 52bd
00000320: 3833 5e3e 4faf b7bd 6c8a fabd c834 12be
00000330: b3cd 393e a950 d9bd b2ff f43d 1cb7 fabd
00000340: ea63 aa3c a67e 313e 3052 29bd f8a3 2dbe
00000350: b3f5 2f3e 09bb 6d3e f311 1fbd e679 3dbd
00000360: 790b b83a 929e 873d 8948 21bd 676b 193e
00000370: 52e8 3c3d bf0d 933b 7d16 cfbd d4d3 033e
00000380: a978 c83d b96b 2fbe 2d61 85ba a847 8dbd
00000390: 9f22 083e cce7 ad3c d5b9 bbbe 2b51 35be
000003a0: 2648 dabc 78e6 3c3e 21c3 393e 2c89 f9bd
000003b0: e893 aebe dfc3 5cbe c17b 123e 0258 363e
000003c0: d65c 863d fe7c 583e 49be 34bd a3a7 4cbc
000003d0: c42f 2c3e 16d4 f6bd ecd3 9cbd c0bf 51bd
000003e0: 87ef 5a3e 5ca4 a6bd ff7e 3b3d 1c8c b4bd
000003f0: 4988 983b 8e9d 6f3e a6ec 8f3d a9f8 52bd
-0.10322715 0.12507764 -0.11943578 -0.18628113 -0.15987113 -0.040837947 -0.21297611 -0.035950378
0.0007192132 -0.022110436 0.07935236 -0.068032995 -0.13264617 -0.13998827 -0.08681959 -0.0127628585
0.055706456 -0.042022377 -0.10516215 -0.16595425 0.015219205 -0.066031106 0.08732482 0.14237618
0.05100602 -0.056199767 0.03941605 0.08793451 0.1970102 0.13732083 -0.10740835 -0.043820556
-0.08464605 0.093639866 0.13375467 -0.044118557 -0.092380546 0.032694593 0.02031489 0.06385269
-0.13000917 0.09432006 -0.04517183 -0.16702592 -0.13187969 0.03511623 -0.39193413 -0.121013775
0.11441994 -0.09097347 0.0003073292 0.15095413 0.06933247 0.028863193 0.19755122 -0.012209603
0.08272982 0.04171795 -0.0033259697 0.02508253 0.14983788 0.036552954 -0.32744628 0.018210994
0.019937245 -0.06389858 -0.039155867 -0.20688045 0.043195378 -0.06422383 0.14269464 0.056172367
0.16670235 0.08073801 -0.021999516 0.07463565 -0.09299553 -0.09744478 -0.19954425 -0.05399459
-0.0053487928 0.2674952 -0.036752217 -0.18726274 0.07103374 0.027338076 -0.079682894 -0.022552857
-0.024067732 0.15325037 0.06293217 -0.16103785 -0.16533808 -0.1265709 0.13326283 -0.13771495
-0.17336799 0.12203326 -0.052327298 0.24690448 -0.099408664 0.058485057 -0.14528777 -0.22031292
-0.14670518 -0.19566369 0.15599538 -0.25520387 -0.01912304 -0.03305166 0.13860352 -0.16611134
-0.062761664 0.1765828 -0.14419599 0.01633167 -0.043214854 -0.07015869 0.042505763 -0.0034766828
0.24251367 0.036240693 0.13583864 0.06668446 0.2481786 -0.023812883 -0.001790111 0.11818257
0.10978541 -0.08617924 -0.0335075 0.020394418 -0.17443702 -0.05172888 0.026346376 0.2616821
0.16625242 -0.0586948 -0.17436512 -0.011768915 -0.072582856 -0.052808862 -0.22666942 0.026343465
-0.118986696 0.06538326 0.23004025 -0.17103295 -0.17784272 0.20749703 -0.14028499 -0.0068877093
0.050927013 -0.03505609 -0.00044731796 -0.065947406 0.0012512261 0.1610887 -0.12880112 0.17907938
-0.07990586 -0.046501994 -0.12209289 -0.02877391 -0.05469167 -0.08673853 0.03864056 -0.038826287
-0.07533171 -0.1746643 0.114855595 0.0069329888 -0.14087786 -0.03515863 -0.13299158 -0.05559789
-0.22402942 0.009066692 0.08373494 0.16935173 0.02931664 0.056946926 0.03490448 -0.19017339
-0.016535295 0.07907238 0.20228478 -0.096760064 0.076969735 -0.1905599 0.19016907 -0.13494028
0.013640487 -0.028886544 0.19233088 0.034946065 -0.0016031933 0.22552255 -0.082099706 -0.051507775
0.21699226 -0.08968984 -0.12233433 -0.14277947 0.18144874 -0.10611088 0.119628325 -0.122419566
0.020799596 0.17333469 -0.041338146 -0.1695708 0.1718357 0.2321588 -0.038835477 -0.04625883
0.0014041505 0.06622042 -0.039375816 0.14982377 0.046119995 0.0044877226 -0.10111711 0.12873775
0.09788639 -0.17130937 -0.0010176055 -0.06898433 0.13294457 0.021228693 -0.36665216 -0.17706744
-0.026645731 0.18447292 0.18140842 -0.121843666 -0.3409722 -0.21559094 0.14305021 0.1780701
0.06560676 0.2114143 -0.044126783 -0.01249114 0.16815096 -0.12052171 -0.076576084 -0.051208258
0.21380435 -0.08136818 0.04577541 -0.08815786 0.0046549183 0.23399946 0.07027559 -0.051506672

relation_encoder.W_ht2r.1.bias f4 [32]
00000000: 30fa 1a3c 035b 803c a909 43bc b826 df3c
00000010: 3a02 4ebc 92e8 8bbc fd85 1a3c 8b4e 673c
00000020: 61b7 5abb e75f e6bb a0d7 28bc d0cf 903c
00000030: 9ac0 27bb 31e3 6bbc 5f34 c03a b9ea 12bd
00000040: 3fd2 0e3d ab63 7dba e3e0 063c 0a7f 23bd
00000050: c77d 9a3c a093 0bbd 157b cb3b 5602 67bc
00000060: ad5d d7bb a7f1 a73b 32d8 a6ba 51c6 d03a
00000070: a0ab b0bc 9333 9d3b 2644 153d ab95 1c3b
0.009459063 0.015668398 -0.011904159 0.027240142 -0.012573773 -0.017078672 0.009431359 0.014117847
-0.0033373463 -0.0070304754 -0.010305315 0.017677218 -0.0025596977 -0.014397428 0.0014664045 -0.03586838
0.034868475 -0.0009666036 0.008232328 -0.039916076 0.018858803 -0.034076333 0.006209741 -0.014099678
-0.0065724463 0.0051252428 -0.0012729226 0.0015928244 -0.021566212 0.004797408 0.036441945 0.002389292

relation_encoder.W_ht2r.2.weight f4 [32, 96]
00000000: 63d7 053e b66c b63d 8659 55be b91b 1d3e
00000010: 8d1c 0d3e 6017 26be 86ef 2a3e 9d4d e13d
00000020: 009f db3d b2a5 fa3d 5f13 abbd 32fc 03be
00000030: dac5 e2bd a4bf 2d3e 263d 843d 2554 6e3d
00000040: 7b5a 0b3e 47b6 3c3e c944 9ebd 7a24 e33d
00000050: 0b40 10bc 24ea 423d 4152 18be 9bbc fd3d
00000060: 9543 4fbe 1743 29be f0ad 003e 2e6b 363d
00000070: 3973 1cbd 7174 203e e43e 513e ec05 683e
00000080: 40b6 5dbe f607 8dbb bf69 55be 007b 92bd
00000090: c720 f23d 6c74 0b3e 2f72 8f3d 614d 313e
000000a0: 20b7 803d 7b0c 43be cfcd 063d 3651 333b
000000b0: 2b7c 07be 00d7 6c3e cae4 38bd 3984 543e
000000c0: d674 073e b8ea 7ebe d9ab 1abd 8096 743e
000000d0: 2e7f f13d 46aa c63d ec5f b73d 26cf 20bd
000000e0: 22ee c03d 9548 183e 6066 ef3d 92dc 2c3e
000000f0: b1d1 3c3e 1114 a33e 69ba 713d 0653 82bd
00000100: 06a3 15be 628e 15be 5ec6 7cbd 4f13 39be
00000110: 59b4 a8bd a566 9f3d a741 acbd 428f d1bc
00000120: bcda f63d 6d94 743e 61e7 35bc 2301 0bbe
00000130: 9ce5 4dbb 736b a63b b294 1f3d dc50 e13d
00000140: 846c 973d 13de 25bb 6573 80bd 9e8f bdbc
00000150: 0a2c 97bd d40f 8a3d 6e0e f43c 8b70 9c3d
00000160: 7196 06be b8bc 0d3d 99c7 c2bd d60c 8ebc
00000170: 40a3 bf3b aaeb 77be a49a 6f3e 5d18 d33d
00000180: 8611 15be 35a5 71bb 7f34 d4bc 99eb 87bb
00000190: d302 7a3d b2e3 79bd 20ea a6bd b160 763d
000001a0: 71f0 103e a3fd 7fbd 9b6c c13c f537 debd
000001b0: c342 76bd 290f a53d 3f5c 12be 23da 213c
000001c0: 7010 bc3d e321 78bd 8c61 813d 08d5 96bd
000001d0: 90ff a93b 5505 f9bd 3a20 83bb 0fef 3abe
000001e0: 42c7 d4bd 1f7e 803d 75c0 0cbe bbc1 c2bd
000001f0: 049f 793e a2ac 743d 80d5 c4bd 4a40 063e
00000200: e4a3 873d 6372 bb3d 3fc6 1dbc 4db3 f93d
00000210: 1cbc 88bd 4e70 c6bd 4607 2b3e fd3f 6b3e
00000220: 5d56 12be 16be 393d 7ace 02bd eeb8 39be
00000230: ea17 083e 8524 0fbe 847d 3fbd ecf5 823d
00000240: 4fd0 c23d 14e6 f73d 3ed2 0fbc d881 0f3e
00000250: b38e 8bbd be8d dd3d 137b 5c3d 60a2 1f3e
00000260: 4f70 a2bd 6268 c0bd 9760 fc3d 6b7f 1e3d
00000270: c94a 873d 2361 723e 4ff7 e53d ec8b 14bc
00000280: 5275 36bd 6441 08be 8e69 a2bd bcce e93c
00000290: 747e 923d 7104 9e3c 921e 893d 9bc5 49be
000002a0: 99b1 c5bd 32b7 ef3c 703a afbc f830 a73d
000002b0: 5315 cb3d 43a0 dfbd 6357 34bd 9a9f 62bc
000002c0: 0afe 593d 40af f13d e0bf 973d 63a2 153e
000002d0: 8875 273d 2ec5 983d 68c7 37bc 4a7c b13a
000002e0: a280 97bd 9339 d1bc 592d a53d 0b8a 0fbe
000002f0: ec12 4cbe 50f2 6dbd 42bb d23d 6c4a e9bd
00000300: 3a66 5c3b 37d5 29bd 8cbd f03c 3bea 353e
00000310: 3ac5 ea3c 9fe4 5c3e 3117 a8bc caa6 863d
00000320: 27a0 103d 50de 043e 607b 24be 2427 9ebc
00000330: 281a ccbd 0bdd 863d 4394 513e 2023 c23d
00000340: d398 0a3e a47b 25be 0870 933d f44c 3dbd
00000350: 87f6 933d 2fae a1bd ae70 0f3d f9a0 d23c
00000360: 80f8 68bd 7fcc f43d e03c f8bd 2925 81be
00000370: ac23 9cbd 5fba f0bd 56c3 bd3c 14d5 2a3e
00000380: 8820 593d 7be6 93bd 4051 bc3d 944f 013e
00000390: 4604 05bd dbbe 45be 8dc3 16be 9072 12be
000003a0: 7f82 7dbd 77c9 67bc 3cd2 093d 7cad 343e
000003b0: 27a4 1a3e bd6f 39bd 1125 f43d e2bf 64bd
000003c0: 44f0 ffbd 7116 373d 2e16 7b3d cb82 82be
000003d0: 57c9 c33d 1228 923c 45d6 b5ba 58d2 323e
000003e0: b7cc 43bd 285f 77be 9900 bcbc 3db9 e93d
000003f0: 5664 263d 675b 303e 15b3 02be eba0 3bbe
0.13070445 0.08907454 -0.20834932 0.15342607 0.13780423 -0.16219854 0.16692933 0.11001132
0.10723686 0.12238635 -0.08353304 -0.12889174 -0.110728934 0.16967636 0.06456976 0.058185715
0.13608734 0.18428908 -0.077279635 0.11090942 -0.0088043315 0.047586575 -0.14875127 0.12389489
-0.20240624 -0.16529499 0.12566352 0.04453581 -0.038195822 0.15669419 0.20434147 0.22658509
-0.21651554 -0.0043039275 -0.2084112 -0.07152367 0.11822658 0.1361863 0.07004201 0.17314674
0.06284928 -0.1904773 0.032911118 0.0027361638 -0.1323096 0.23128891 -0.045140065 0.20753564
0.13228163 -0.24894226 -0.037761543 0.23885536 0.11791836 0.09700446 0.089538425 -0.039260052
0.0942042 0.14871438 0.11689448 0.16881016 0.18439366 0.31851247 0.059015665 -0.06363492
-0.1461297 -0.14605096 -0.061712615 -0.18073772 -0.082375236 0.0778325 -0.0841096 -0.025581006
0.12053439 0.23884745 -0.011102528 -0.13574652 -0.0031417375 0.005078727 0.038960166 0.11001751
0.073937446 -0.0025309369 -0.0627201 -0.023139771 -0.07381447 0.067413 0.029792037 0.07638653
-0.13143326 0.034603804 -0.095107265 -0.017340105 0.0058483183 -0.24210992 0.23398834 0.10307381
-0.14557466 -0.0036872153 -0.025903938 -0.0041479585 0.06103785 -0.061008163 -0.081501245 0.060150806
0.14154221 -0.062497746 0.023611357 -0.10850517 -0.060122263 0.08059532 -0.14293002 0.009878668
0.09182823 -0.060579192 0.06317434 -0.07364851 0.005187936 -0.1215922 -0.0040016444 -0.18255256
-0.10389568 0.06274056 -0.13745292 -0.095096074 0.24377066 0.059734948 -0.096110344 0.13110462
0.066230565 0.09152677 -0.009629785 0.12192402 -0.06676504 -0.09689389 0.16701993 0.22973628
-0.14290757 0.045347296 -0.031935193 -0.18136951 0.13290372 -0.13978775 -0.04675056 0.06394562
0.09512388 0.12104431 -0.008778153 0.14014375 -0.06814327 0.10818051 0.05382831 0.15589285
-0.079315774 -0.093949094 0.123231106 0.038695734 0.06606061 0.23669867 0.11228811 -0.009066563
-0.04454548 -0.13306195 -0.07930289 0.028540961 0.07153025 0.019289227 0.06695284 -0.19704287
-0.09653015 0.029262159 -0.02139017 0.08163637 0.09916177 -0.10919239 -0.04402865 -0.013831997
0.053220786 0.118010044 0.07409644 0.14612727 0.04088357 0.07459484 -0.011216976 0.0013541069
-0.07397582 -0.025540149 0.0806529 -0.14017503 -0.19929093 -0.058092415 0.10289623 -0.11391148
0.0033630268 -0.041463103 0.029387258 0.17765133 0.028658498 0.21571587 -0.020518871 0.06574781
0.035308983 0.1297543 -0.16062689 -0.019305773 -0.099659264 0.06585129 0.20466714 0.09479356
0.1353486 -0.16160446 0.07199103 -0.046215966 0.07224756 -0.07894551 0.03501957 0.025711523
-0.056877613 0.11953067 -0.12120986 -0.25223663 -0.07623991 -0.117542975 0.023164432 0.16682845
0.05300954 -0.07221695 0.09195185 0.12628013 -0.03247478 -0.19311087 -0.14723034 -0.14301515
-0.06189203 -0.014147154 0.03364776 0.17644304 0.15101682 -0.045272578 0.11921132 -0.055847056
-0.12496999 0.044699136 0.06130045 -0.25490412 0.09559887 0.017841373 -0.0013873061 0.17463052
-0.047802653 -0.24157393 -0.022949504 0.114122845 0.04062303 0.17222367 -0.12763627 -0.18323104

relation_encoder.W_ht2r.2.bias f4 [32]
00000000: c8aa 123c f2da 59bc d65f 94bc 1c5e c5bc
00000010: 9687 57bc 2e93 4dbc 08c0 33bb e5bf 85bc
00000020: 90db 12bd af53 22bb 1f50 42bb 0a5d 4a3b
00000030: 02bc babc 2284 013c 3970 8e3c 0528 853b
00000040: 3576 833c 6b78 0838 fa0b 713c 0f70 883c
00000050: 6520 7b3c 413f f7bc f8f3 a1bc 8c03 633a
00000060: 1a7a cfbc 9b1f b9bc 35c8 733c 0ed8 453b
00000070: c051 493c a762 b53a 1b23 16bd d550 7dbc
0.00895185 -0.01329683 -0.018112104 -0.024092726 -0.013154885 -0.012547297 -0.0027427692 -0.016326854
-0.035853922 -0.0024769118 -0.0029649807 0.003087821 -0.022794727 0.007905038 0.017387496 0.0040636086
0.016047576 3.2537075e-05 0.014712328 0.016654996 0.015327548 -0.030181529 -0.019769654 0.00086598913
-0.025326777 -0.022598078 0.014879276 0.0030188593 0.012287557 0.0013838605 -0.036654573 -0.015461166

relation_encoder.W_message.0.weight f4 [32, 96]
00000000: f04d 023e 3bb2 4ebe 9084 063e 7a50 87be
00000010: 296b 173e acb5 2fbe c859 56bd e2b2 3bbd
00000020: 1253 363e 5057 8fbd f183 a93d 8dce 15be
00000030: 47d8 cc3d c754 84be 88be 633e 4e2b bebc
00000040: bbb6 043e 86f4 513e f2c8 debd 7b7e 443e
00000050: aa48 c13d 22ab 163d b2f7 69bc ae13 11be
00000060: aaf9 a1be 737f 1dbd 9829 3fbe 9ff1 8bbe
00000070: fdcb 7f3d 4193 0a3e bc58 f93c 292d 1e3e
00000080: bceb a3bd fe6f 21be 4add c8bd 9018 8c3d
00000090: 6270 53bd 2489 9abd f4fc 86bd 6cdd 00be
000000a0: 8bcc 5abd 7b6e f53d 5993 5a3e 4abc bfbb
000000b0: 917c bcbd 0a62 2b3e 891d 943d a810 ab3d
000000c0: bd70 4e3d 1786 afbd f595 943c e35b 54be
000000d0: 4151 893d 0d31 053e 1fee 16be 33c6 bcbc
000000e0: c4ea 30be e57f dcbd f3c8 6d3d f3ec 76bd
000000f0: acae 95bd c25b 1ebc f93a c1bd 670d 28bd
00000100: 30b7 d63d 433a d6bc 1fdc 223e f697 d8bd
00000110: 7002 b93c 0dce 26be e90c 3ebc 614a 01bd
00000120: 8e68 36be 77b9 423d 474c dbbd ecad 8d3d
00000130: 3c9a 2c3e a764 9e3d c1e1 083d cf29 0c3e
00000140: b5f7 c33d a659 f33c 21c8 d83c 9fd3 03be
00000150: 792a e93c f578 bcbd 5bf6 ca3c e5b4 36bd
00000160: 289a acbb 465d 44bd 73d4 ad3d dc63 5a3d
00000170: b5ba 95bd 809c 3dbc 7d49 353d c506 c4bd
00000180: 5f60 d8bd 9bf2 573b c870 f0bd d421 043e
00000190: e34a c3bd dccf 013e b135 30be b5d5 35be
000001a0: 01b7 b13d c2f0 963d 9cc2 4d3d 5ce6 0f3e
000001b0: 29d6 afbc f7d5 e5bc 7dfd 113e 95ca 513e
000001c0: 961c 50be 20e1 7a3e 7b58 313d f752 0e3e
000001d0: 523f ea3d 5591 09be 2662 443d 0313 0e3d
000001e0: 8dfb 523d 11f9 0a3e 3029 803e 5974 edbc
000001f0: 3b21 7cbc 1d80 12be 38e7 1ebc 5fae 16be
00000200: 4b1e 933c 1df3 383d dcb7 c0bd 7efd 8d3d
00000210: 75fc 423d bd30 7d3d 4016 1fbd d1c4 06be
00000220: 8e2f b43d 1ea7 143e 2e46 13bd c2a1 0d39
00000230: 80d2 c8bd aa80 fdbd f537 b0bc 93c9 13be
00000240: ad05 f53d 82de c53c 4465 223d d0fe 9d3d
00000250: 85ea 97bd 86e0 183e 5a55 f53d 2301 87bb
00000260: 1e65 103d 7459 6d3d 5b85 7abc 6eec 00be
00000270: d106 0dbe f624 653d 4198 793d 9ad8 973b
00000280: bd01 20be 3d93 053e bba2 383e 0057 aabb
00000290: bd8d 03be 247f 3fbe 0d29 33be 6b7f 193e
000002a0: 4b55 d23d 3d90 993d b2f9 39bc 1f54 3f3c
000002b0: 102b 043e 92e0 a6bd fa74 183d 11db 4a3e
000002c0: 32da 53be 0e36 ffbd 9178 57be 7172 f5bd
000002d0: bfaa f03d b6b4 3b3c 18ad 973d 4ca5 823d
000002e0: 980a 2e3e 7e45 8c3d 67e9 58bc 74c1 2cbd
000002f0: d947 eebd d6a2 41bd 5c5e 2dbe a17d 703d
00000300: ba57 4bbe 0126 c33d 1d8c 8a3d da57 ecba
00000310: 1707 98bd 5ff9 33bc 57f1 2abe 1e5b 28bd
00000320: f8b6 97bd 606c e0bd db85 2d3c 62a9 0a3e
00000330: b12d 143e 945d abbd 1a23 6c3e 091b 56bd
00000340: 5d7d ed3d 9592 66bd 26a9 a5bc d759 233e
00000350: 850c 31be 655a 183e edb5 48be ec22 d43c
00000360: aa2e 5a3d 5d29 683d cd57 d73c 90fa a0bd
00000370: 0fe8 53be 903e c0bd 8a82 7b3d e128 02be
00000380: 8000 5fbd 6f06 d83c 3490 0fbe 7152 4abe
00000390: 9d18 d8ba 4e14 0f3e 16e9 1bbe d0b7 683e
000003a0: 1064 033d a7d4 833d 883c 043e fa1b 33be
000003b0: bb91 0e3e 5c44 603e 0fd5 5b3d c2ae 3b3d
000003c0: 1df9 fbbc 7a09 d5bd 8904 153e 6c2e 12be
000003d0: 8c5f bebd 3108 2dbe 9a9d 0abe e666 103c
000003e0: 53b9 8d3d ea29 a8bc 0ea2 df3d b999 a83d
000003f0: dcff d63d 72e2 423d 5a88 1b3e a0cc ad3d
0.12725043 -0.20185177 0.13136506 -0.26428586 0.14786972 -0.17159146 -0.052331716 -0.045824893
0.17805126 -0.069990754 0.08277119 -0.14629574 0.10002189 -0.2584593 0.2224065 -0.023214009
0.12960331 0.20503435 -0.10878171 0.19188873 0.09437688 0.0367843 -0.014280247 -0.14167663
-0.3163579 -0.038451623 -0.1866821 -0.2733278 0.062450398 0.13532735 0.03043782 0.15446915
-0.08003947 -0.15765378 -0.098078325 0.068406224 -0.05162085 -0.07545689 -0.06591216 -0.12584466
-0.053417724 0.11983963 0.21345271 -0.005851303 -0.09203447 0.16736618 0.07232196 0.08352786
0.050400484 -0.085704975 0.018137911 -0.20738177 0.06704951 0.13006993 -0.14739273 -0.023043728
-0.17277056 -0.107665814 0.05805297 -0.060284566 -0.07308707 -0.009665431 -0.09435076 -0.041028406
0.10484159 -0.026150828 0.15904282 -0.10575859 0.02258417 -0.1628954 -0.011599758 -0.031565074
-0.17813322 0.047540154 -0.10707908 0.069179386 0.1685571 0.07734042 0.03341842 0.13687824
0.09568731 0.029705834 0.026462616 -0.12873696 0.028462635 -0.09202758 0.024775675 -0.04460611
-0.0052674003 -0.047940515 0.08487787 0.05331789 -0.07311002 -0.011572957 0.044259537 -0.09571604
-0.10565256 0.0032951 -0.11740261 0.1290353 -0.09535768 0.12676948 -0.17207982 -0.17757304
0.08677483 0.0737014 0.050234422 0.14052719 -0.021464424 -0.028056128 0.14256854 0.20487435
-0.20323405 0.24499941 0.043297272 0.13898836 0.11437859 -0.13434346 0.047945164 0.0346861
0.05150943 0.13571574 0.25031424 -0.028986143 -0.015388782 -0.14306684 -0.0096986815 -0.14714955
0.01795878 0.045153726 -0.094100684 0.069331154 0.047604043 0.06181406 -0.03883958 -0.13161017
0.08798133 0.14516875 -0.0359556 0.00013507067 -0.09805775 -0.12378056 -0.021511057 -0.14432363
0.11963973 0.024153952 0.039647356 0.07714617 -0.07417778 0.14929399 0.1197917 -0.0041200086
0.035252683 0.057946637 -0.0152905835 -0.12590191 -0.13772132 0.05594345 0.060936216 0.004633975
-0.15625663 0.13044448 0.18030827 -0.0051983595 -0.12847038 -0.18700844 -0.17496128 0.14990012
0.102701746 0.074982144 -0.011351036 0.011677771 0.12907052 -0.08148302 0.037220933 0.1981013
-0.20688704 -0.12461482 -0.21042086 -0.119847186 0.11751317 0.011456659 0.07406062 0.06379184
0.16996229 0.06849192 -0.013239241 -0.04217668 -0.116347976 -0.047274433 -0.16930526 0.05871356
-0.19857684 0.09528733 0.06765006 -0.0018031553 -0.07423227 -0.010984748 -0.16693626 -0.04110252
-0.074079454 -0.10958171 0.010590996 0.13541177 0.14470555 -0.08367458 0.23060265 -0.052271876
0.11596177 -0.056292135 -0.020222258 0.1595224 -0.17289932 0.14878233 -0.19600649 0.025895558
0.05326716 0.056680072 0.026286984 -0.07860291 -0.20693992 -0.09386933 0.06140379 -0.12710907
-0.054443836 0.026370255 -0.14019853 -0.19758011 -0.0016486828 0.1397259 -0.15225634 0.22726369
0.03207785 0.064370446 0.12913716 -0.17491141 0.1392278 0.21901077 0.053669985 0.04582096
-0.030758435 -0.10402198 0.14552511 -0.14275521 -0.09295568 -0.16897656 -0.13536683 0.008813595
0.069201134 -0.020527799 0.10919581 0.08232445 0.1049802 0.047579236 0.15188733 0.08486295

relation_encoder.W_message.0.bias f4 [32]
00000000: cac0 6d3c f529 b93c 7963 29bc 3ef9 593b
00000010: ea5e da3b 450a abbc a5f9 0c3c b55f 5ebc
00000020: 8088 d7bb cd2e 58bc d7bf a63b 64e4 f43b
00000030: 1eed 0e3d 75d1 d7bc 8036 6d3c 1b68 37bc
00000040: 5239 0a3d a7a4 5ebd 5258 6cb9 cd77 0f3d
00000050: 0130 3abb 425c 02be 03f3 7cbc cc8f 923c
00000060: b865 113d 21a9 023c 318a 703c 0523 fd3c
00000070: 677b 4bba 7bd6 2bbc 2df5 9f3c 10c6 2c3c
0.0145112965 0.022603014 -0.010338658 0.0033260132 0.0066641467 -0.02087892 0.008604442 -0.013572623
-0.0065775514 -0.013194752 0.005088787 0.0074735153 0.0348941 -0.026344994 0.014478326 -0.011194254
0.03374607 -0.054356243 -0.00022539616 0.03502636 -0.002840996 -0.12730506 -0.015438798 0.017890833
0.035497397 0.007974894 0.014681385 0.030900488 -0.0007762224 -0.010488148 0.019526089 0.010545269

relation_encoder.W_message.1.weight f4 [32, 96]
00000000: 0597 4dbc 9ccf de3d a099 f83c a8fc 123e
00000010: 68be 4b3c 07d9 0dbe fa98 ab3c 4163 2bbe
00000020: fe24 4a3c 0fa1 1e3e d1f5 193e ff02 0a3e
00000030: 31b8 e2bd f362 0bbe ace9 1d3d bfca d43d
00000040: 4ceb adbd 5c3e 13be ceda 2bbe b36b 0a3e
00000050: 7967 cabd e7a2 11be 55f6 b5bd 0869 d8bd
00000060: 7829 c0bd 4b7e 133d c649 25bc fe82 ad3d
00000070: 89d2 1fbe 3d4c 343e 869c 1f3e 7a25 3f3e
00000080: dc36 493d 58e5 ff3b b326 44be b835 01bd
00000090: 883c 933d 03e4 153e 697d 3b3d 77bc d83d
000000a0: 231d 4c3e 2757 e0bd 4ec2 9abd b7f4 37be
000000b0: a776 a4bc 63e4 9dbc d25f 22be 62f2 86be
000000c0: be66 993d 8bee 213d 2760 3c3e bc3a 143e
000000d0: d5fd f3bd 50ad 23bc 8186 c3bd 39e4 56bd
000000e0: f8c0 d2bd f328 ce3c 6186 4ebd 1866 f93d
000000f0: 3dd2 c83d 83f5 cf3d 2f92 843d d50e 16be
00000100: b809 74bd 140b 8ebd 4bbd d43c 57b4 37be
00000110: 769e b2bd 191b 42bc e13e 8fbd 7695 303e
00000120: 4d19 8dbe 9bee ed3d 0215 2d3e ddff 283e
00000130: 3ab1 3bbe 4437 13bd 52a3 a43c a4f5 533e
00000140: a80e 373e ccff 123d a629 35be 4e39 213e
00000150: f067 d33d 0abf 19be 77f0 913d bca4 913d
00000160: d3a7 0f3e a5b7 42be fb54 ea3d 20ec 3cbd
00000170: c8c5 fabd f908 f53c 1743 02be d9ec d93d
00000180: 6eba f03b cafb 88bd 7e6c 133d d9b1 dfbd
00000190: 4d28 cc3d c204 333e e727 07be 2bff 57bd
000001a0: 9bf8 373d 3c08 a6bc 82d1 803e 5147 41bd
000001b0: 5559 f0bd 3167 403e f6e5 2abe 43c3 acbc
000001c0: 9958 b43d d7b8 1bbe cf08 17be f9d0 27be
000001d0: ac99 9e3d d7bd 9b3e c272 4d3e c426 5c3e
000001e0: 5fcb 453e 0261 213e 2467 f2bd fd03 17be
000001f0: 2d2f 68bd 28e7 193e 4948 893b 1b2c f03d
00000200: 89db 2e3e fa12 3c3e 98be 17bd 5335 a33c
00000210: a160 d43d ec4d ddbd d237 533d 55b9 a73d
00000220: 4a23 773e beba 733d 1edb 1ebe 1fca 30be
00000230: ee83 e63d cc07 153e 23f3 1ebe bf55 8ebd
00000240: 690e e9bd a148 983d a319 353e 2d2a b0bc
00000250: 247d dabd 50bb 66bd 3747 a7bd 8104 4a3e
00000260: cab5 993e a747 34bd 91aa c23d 59ae 5d3b
00000270: 2985 fa3c cc8e 223e b038 b0bd 01b4 683d
00000280: 72cb d13c 929b 25be 8e8c 53be d613 2bbd
00000290: 209c dfbd 1e63 e1bd 08a7 093e 4cd9 e53d
000002a0: 40e4 c13d a738 0c3b df21 263e a47c 243e
000002b0: 9c30 563e 9396 35be c45f 213d dce9 00be
000002c0: de24 0cbe 42ff 39bc 3261 c93d d606 6f3d
000002d0: 6f40 113d 7728 4f3e bf86 ecbd aef5 7a3d
000002e0: 529d d1bc 7fcd 40bc cfc5 60be 5772 d23d
000002f0: 38b7 b0bd 8da5 9b3d cc08 92bc 7dfe 48bd
00000300: 531f e1bd 1c56 75be 50c4 243e 88b9 f33d
00000310: 7010 cbbd 8f58 053e bbbe c33a 5efc 433e
00000320: b955 bd3d f751 a73d 0587 da3b 9ea5 bebd
00000330: e4ff 5d3d 4c34 c83d 7e71 523d b1ff 9a3d
00000340: 0552 853d b44f 70bd 8e13 183d f51e 6bbe
00000350: de47 b33b ba23 dbbd 8fa0 88be 5fc7 40bd
00000360: fa9a 13be 85e0 39be 13ef ccbd 3b9c 7b3e
00000370: 89af 85bd 9ac2 293e cf4d 633d deb5 bc3c
00000380: c0fa 4bbd 4b28 883d 8329 133e 1be5 203d
00000390: bee3 3ebd 89c2 013c af6b 493d 73d4 a2bd
000003a0: 3a0e d5bd ea9b 2a3d 9ab9 c13d 04c3 96be
000003b0: 0060 b9bd 92d8 aa3d 7762 3d3e 5a16 3b3e
000003c0: a276 ccbd 9ae5 0dbd 3bae babc dd3b c73d
000003d0: 0599 713e 9647 9c3d 5376 143e 5287 f1bd
000003e0: 5f4f 093e e59a f2bc 68fe 8bbd 4080 b13d
000003f0: cbf1 c43d 447f 12be d35c 83be ace4 373d
-0.012548213 0.10879442 0.030346692 0.14354193 0.012435533 -0.1385232 0.020946968 -0.16737081
0.012337921 0.15491126 0.15035178 0.13477705 -0.11070288 -0.13611965 0.038552925 0.10390233
-0.08492145 -0.14379257 -0.16782686 0.13517646 -0.09883017 -0.14222299 -0.08884875 -0.10566908
-0.093829095 0.036009114 -0.01008839 0.084722504 -0.15607657 0.17607208 0.15587053 0.1866664
0.049124584 0.0078093223 -0.19155388 -0.03154537 0.0718928 0.14637761 0.045773897 0.10582822
0.1993299 -0.10954123 -0.07556592 -0.17964445 -0.02007611 -0.019273942 -0.15856865 -0.26356798
0.074903 0.039534133 0.18396054 0.1447553 -0.11913649 -0.009990051 -0.09547139 -0.052463744
-0.10290712 0.02516601 -0.050421122 0.12177676 0.09805725 0.101542495 0.06473195 -0.14654095
-0.05957958 -0.06935707 0.025969168 -0.17939888 -0.0872163 -0.011847281 -0.06994415 0.17244515
-0.27558365 0.11617776 0.16902545 0.16503854 -0.18329325 -0.035941377 0.020097408 0.20699173
0.17876685 0.03588848 -0.17691669 0.15744516 0.10322559 -0.15014282 0.07125943 0.07111499
0.14028864 -0.19015367 0.1144199 -0.046123624 -0.12244755 0.029911505 -0.12720905 0.10640878
0.007346443 -0.0668865 0.035992138 -0.109225936 0.09968624 0.17482284 -0.13198815 -0.05273358
0.044914823 -0.020267598 0.25159842 -0.047187153 -0.11735789 0.18789364 -0.16689286 -0.021089202
0.08805961 -0.1520723 -0.14749454 -0.1638831 0.07744154 0.30418274 0.20063308 0.21499163
0.19315861 0.15759662 -0.11836079 -0.14747615 -0.056685615 0.15029585 0.0041895253 0.117271625
0.17075934 0.18366614 -0.037047 0.019922888 0.10369993 -0.10805878 0.051566906 0.08189646
0.24134555 0.059504263 -0.15513274 -0.17264603 0.11255632 0.14553756 -0.15522437 -0.069499485
-0.11379702 0.07435728 0.17685561 -0.021504486 -0.106684 -0.05633098 -0.0816788 0.1972828
0.30021507 -0.044013645 0.09505189 0.0033825843 0.030581074 0.15874785 -0.08604562 0.05681229
0.025609706 -0.16172627 -0.20659086 -0.041766964 -0.1091845 -0.11005233 0.13442624 0.11223087
0.09467363 0.0021396072 0.16223858 0.16063172 0.2091698 -0.17733221 0.03939797 -0.1258921
-0.13685939 -0.011352362 0.09832992 0.05835613 0.03546184 0.2023028 -0.11549138 0.061269455
-0.025587711 -0.011767744 -0.21950458 0.10275715 -0.08628696 0.07599936 -0.01782646 -0.049070824
-0.10992303 -0.2395863 0.16090512 0.11900622 -0.099152446 0.13022064 0.0014934161 0.19139239
0.09244866 0.081699304 0.0066689276 -0.09308933 0.054199114 0.097756 0.051377766 0.075683005
0.065097846 -0.05866976 0.037128024 -0.22961028 0.0054712137 -0.10700174 -0.26684996 -0.047065135
-0.14414588 -0.18152054 -0.10006537 0.24571316 -0.06527621 0.16578141 0.055494126 0.02303594
-0.04979968 0.0664831 0.14371304 0.039280992 -0.04660391 0.007919916 0.04917496 -0.07950678
-0.10403104 0.041652597 0.09459229 -0.2944566 -0.09051514 0.08342089 0.18494593 0.18270245
-0.09983565 -0.034642793 -0.022788158 0.09728215 0.23593529 0.076308414 0.14498262 -0.117933884
0.13409184 -0.029614875 -0.068356335 0.0866704 0.09616431 -0.1430636 -0.25656757 0.044895813

relation_encoder.W_message.1.bias f4 [32]
00000000: 66c7 cbbc ee83 88bb e404 b2bb fc8d 91bc
00000010: 6f7e 04bc db87 b7bc 4854 35bc d377 b9bc
00000020: 733f 95bb 7b15 cbbd cda3 15bc 2bd9 84bc
00000030: c4b3 8bbd b963 b5bd cd30 1dbe 16d9 87bd
00000040: fe90 303d db71 773d 3ea8 23bd 3d5b 5cbb
00000050: 5250 84bc 23ab 7ebd 2849 763b 406a 9d3c
00000060: 67f7 9d3c 6043 eabc 5b79 9f3b a0ec 313b
00000070: 0a1c dabc c662 03bc b201 ac3c 31ad 7dbc
-0.024875354 -0.004166118 -0.005432712 -0.017767899 -0.008086785 -0.022403648 -0.0110674575 -0.022640144
-0.004554683 -0.099162064 -0.009133291 -0.016216835 -0.06821397 -0.08856911 -0.15350647 -0.06633203
0.043107025 0.060411315 -0.03995537 -0.0033623718 -0.016151581 -0.062174927 0.0037580226 0.019215703
0.01928301 -0.02859658 0.0048667616 0.0027149096 -0.026624698 -0.008019155 0.020996902 -0.015483187

relation_encoder.W_message.2.weight f4 [32, 96]
00000000: d374 b6bb 8ca7 49bd 06a6 273d db43 2fbd
00000010: b398 7a3d 63cb 643c 6a30 c3bb 5d79 93bd
00000020: 9908 69bc b876 943d d488 ec3a c834 153e
00000030: dde0 13be f908 79bd b1c7 96bd d0ce c1bc
00000040: b497 86bd 9cd8 983d 05d2 ba3d 191a 913d
00000050: f4a5 8c3d 636e 563d 62d3 9fbd 4315 cf3d
00000060: f5a8 ac3d 1133 1c3d 8557 da3d d351 8cbd
00000070: 4cfb e0bd 6f24 11be 44bd 843d c8cf bd3a
00000080: a677 d9bc ab09 3b3d fb91 afbb a527 003d
00000090: e1ad 933c e764 3bbd 9ab6 7abd e469 a2bd
000000a0: 6cf7 10be 08da 9dbc 7d34 81bd 922e 40bd
000000b0: 5349 e9bd 7b3b 96bd 45eb 34be 0c4c 38be
000000c0: a64f e63c 7b39 883b dbaa 14bd ba28 44bc
000000d0: 39b3 96bd 2ecc 103d c675 0c3d 67c6 ef3d
000000e0: f3f1 dabd 18ef d3bd 19dc dcbc b2b7 bd3d
000000f0: 8a33 23bd c064 c23d ab0d abbd eab4 dc3b
00000100: 26b0 263e dbd0 673c 53cb 863d 2980 c93d
00000110: 513e e43d a4a3 343e c7c2 0c3d f8c9 0ebe
00000120: daa0 5bbd 30d1 f83d 2e45 cbbd 475f 693c
00000130: d86d b1bd 97da 1dbe bc1c ffbd fa97 17be
00000140: 2512 cd3d 499f 073d 4bf3 243e f510 8bbc
00000150: 9cfd 9bbc 62d0 9dbd 584d 363e 1710 bebc
00000160: e669 efbd 2d18 c2bd 7e4a ec3c 9aa1 da3c
00000170: 4ab4 99bd 3461 163b d957 813c 8a2b 39be
00000180: 2a12 143e 0d98 d6bd 1391 f3bc 2509 babd
00000190: e0f5 a53d 82d8 ba3b b664 0b3e f6f6 da3c
000001a0: ca7d 2dbe c442 003e 35f8 15be aabe dfbc
000001b0: a250 1b3d 12b7 043e 0381 473e d67d 15be
000001c0: b8a1 27be 287f 4e3e 3de2 1cbd ddbe 1439
000001d0: 0e1d bcbc 2e0d 23bd ff6e ccbb aca6 3a3e
000001e0: 40df 1d3e 57f1 753d 633f 283d 5eb9 38bd
000001f0: c74b 813e a579 1e3e d855 53bd 5317 00be
00000200: 9953 363e e9fb bebd dceb bd3c 71ae 1c3e
00000210: b6fa 403e cd81 15be 3824 dc3d d77b 02be
00000220: 2a04 1c3e 795e f03d 7dc5 06be 1ec9 973d
00000230: c511 4cbe 3b12 1f3e 580c 2f3e c4c0 fb3d
00000240: 6b33 fa3d 9474 823e b660 2f3e 4266 433d
00000250: b98e a4bd d5eb 2fbd 8c63 6d3e 51b2 02be
00000260: 8e80 43bd 4d6e ba3d 7c23 b63b 924a 1f3e
00000270: b81c 99be 1dae 43be 2fd5 2e3e f9d3 d43d
00000280: e072 26be 1368 35be 3ae2 fa3d cf47 95bd
00000290: 0d05 d63d 7082 b23b 305d f43d e0bf 1e3e
000002a0: 21e1 17be 9b76 f4bd 0a91 3fbd 7e92 2cbe
000002b0: 07e0 2b3e f220 febc b703 7f3d 9659 0dbe
000002c0: cff5 1a3e a022 00be 78ad 8f3d 48a9 e53d
000002d0: d205 9fbc 4d1b 503d 0fab 553c 0415 df3c
000002e0: d0dd e9bb 262b f53d 850c 033e 7545 0cbe
000002f0: fd08 55be 7843 1dbd 5bea 3fbe 216e 99bc
00000300: e421 213d 85ac 10be cc7c 693e f017 7f3e
00000310: 3da6 b73d 4804 cf3d e1dd 153d 1b1d f6bd
00000320: fe39 803b a354 c23d ce96 92bc 578b 833e
00000330: 452f a1bc d761 413e 21da 983c 9494 0bbe
00000340: 4b19 273e 4924 4cbd a0bb 3f3c f1a6 bebd
00000350: 3a37 42be 5ea0 24be a64b edbb ae8d 3cbe
00000360: 6e85 0bbe 2026 083d 25fe 663d 8bf3 f03d
00000370: fbf1 46be fe43 0abe 6b1e 7cbd 7ad6 773d
00000380: 7796 05be b3a9 643d 593e 7dbc d640 29bd
00000390: 312c da3d 90a6 8cbd 82fd 54bb 8526 2fbd
000003a0: e237 153e c7ed 81be ce88 35be 0226 debd
000003b0: 4704 c9bd 104a ea3d 7cec 9b3d 4536 51bd
000003c0: c068 243e d883 ebbd f163 f63d 5e7e 7dbe
000003d0: f821 db3d 3d3d 0fbe 51b7 8c3c 03a6 0bbe
000003e0: 867b 7bbd 1916 eebc 016c 27be 9f46 f4bb
000003f0: c366 89bd 648e 24be f9de fb3d ef58 36bd
-0.0055681258 -0.04923205 0.040929817 -0.04278932 0.06118078 0.013964507 -0.005956699 -0.072008826
-0.014223241 0.07249206 0.0018046149 0.14570916 -0.14441247 -0.060799573 -0.07362307 -0.023658186
-0.06571904 0.0746319 0.09122089 0.07085056 0.068675905 0.052351367 -0.0780399 0.10111477
0.084306635 0.03813464 0.10661224 -0.06851544 -0.10985431 -0.14174055 0.06481412 0.0014481479
-0.02654631 0.045663517 -0.0053579784 0.031287808 0.018027248 -0.045750525 -0.0612093 -0.07930353
-0.14156884 -0.019269004 -0.063088395 -0.046919413 -0.113909386 -0.07335564 -0.17667873 -0.1799776
0.028114151 0.004157243 -0.036295753 -0.011972601 -0.07358403 0.03535097 0.034292005 0.11707764
-0.106906794 -0.10348338 -0.02696042 0.09263553 -0.039844073 0.09491873 -0.08352216 0.006735434
0.16278133 0.014148916 0.0658175 0.09838898 0.111446984 0.17640549 0.03436544 -0.13944232
-0.053620197 0.12149274 -0.09925304 0.014243907 -0.08663529 -0.15415417 -0.124566525 -0.14804068
0.100132264 0.03311089 0.16108434 -0.01697586 -0.019041829 -0.077057615 0.17802942 -0.023201032
-0.116901204 -0.094772674 0.028844114 0.026688386 -0.075050905 0.0022946121 0.01578896 -0.18083015
0.14460054 -0.1047822 -0.029732263 -0.090837754 0.081035376 0.0057020793 0.13612637 0.026729088
-0.16942516 0.12525469 -0.14645465 -0.027312595 0.037918694 0.12960461 0.19482808 -0.14598784
-0.16370285 0.20165694 -0.038301695 0.00014185482 -0.022963073 -0.03980749 -0.0062388177 0.18227643
0.15417194 0.060044613 0.041076075 -0.045098655 0.25253126 0.15476091 -0.05159554 -0.12508897
0.17805327 -0.09325392 0.023183756 0.15300919 0.18845639 -0.14600296 0.10749096 -0.12742554
0.15235963 0.11736769 -0.13161273 0.07411407 -0.19928654 0.15534298 0.17094553 0.122926265
0.122168384 0.25479567 0.17126736 0.047704943 -0.08035035 -0.042949516 0.23182505 -0.12763335
-0.04773002 0.091030695 0.0055584293 0.1555579 -0.29904723 -0.19109388 0.1707351 0.10391993
-0.16254759 -0.17715482 0.122501805 -0.07289087 0.10450182 0.0054476783 0.119318366 0.15502882
-0.14831974 -0.11936685 -0.04676918 -0.16852757 0.16784678 -0.031021569 0.062259402 -0.13803706
0.15132831 -0.12513208 0.070155084 0.112139285 -0.019411955 0.050807286 0.013041272 0.0272317
-0.007137038 0.119711205 0.12797745 -0.13698371 -0.2080421 -0.03839442 -0.18741743 -0.018729271
0.03933896 -0.14128311 0.22801512 0.24911475 0.08967254 0.101082385 0.036588553 -0.1201727
0.003913163 0.094887994 -0.017894175 0.25692245 -0.01967586 0.18884979 0.0186587 -0.13630897
0.16318242 -0.04983929 0.011702448 -0.09309185 -0.1896638 -0.160768 -0.007241684 -0.18413422
-0.13625118 0.033239484 0.056394715 0.11765202 -0.19428246 -0.135025 -0.061552446 0.060507275
-0.13045679 0.0558259 -0.015456759 -0.041321598 0.1065296 -0.06867707 -0.0032499735 -0.042761344
0.14572099 -0.25376722 -0.17727968 -0.10847093 -0.09815269 0.114399076 0.07613465 -0.051077146
0.16055584 -0.114997566 0.12030781 -0.24755237 0.106998384 -0.13988204 0.017177256 -0.13637547
-0.061397098 -0.029063271 -0.16349794 -0.0074547078 -0.06709053 -0.16069943 0.12298388 -0.044518407

relation_encoder.W_message.2.bias f4 [32]
00000000: 6af8 9abd ed6b 483c 92b4 af3a e754 c93b
00000010: 2c5c efbb 06a6 383d 96bc dabc 9c5d 4f3c
00000020: 7f4e c1bb 6dc3 18bd f34e 3839 d360 473c
00000030: 034d 16bd b35b 93bd 5ad6 fbbd abee a83b
00000040: 54d8 13bd 5a3b 2f3c 6320 98bc e552 94bd
00000050: b639 7fbc b82e a03c 8786 0d3d 97ae 22bc
00000060: abd7 a43a fd7b 8abc 42e0 d7bd 7956 253b
00000070: 51cd bfbb a843 e0bd b8ac 5c3c 4815 003d
-0.075669125 0.012232763 0.0013405255 0.0061441544 -0.007304689 0.045080207 -0.026701253 0.012656596
-0.00589925 -0.037295748 0.00017577018 0.012169081 -0.036694538 -0.071952246 -0.12296744 0.0051554046
-0.03609498 0.010695303 -0.01857013 -0.072423734 -0.015577724 0.019553527 0.034552123 -0.009929321
0.0012576481 -0.016904825 -0.10540821 0.0025228544 -0.005853333 -0.109504044 0.013468914 0.031270295
