checkpoint/KG-ICL-5L/model_best.tar (torch, 962970 bytes, 437 tensors)

relation_encoder.start_relation_embeddings.weight f4 [1, 32]
0	0xbe3c68db	-0.18399374
1	0x3ed27935	0.411081
2	0xbdcc77a6	-0.09983759
3	0xbea0b7eb	-0.31390318
4	0xbef6bc02	-0.48190314
5	0xbe86ce14	-0.263291
6	0x3e91dd6c	0.28489244
7	0xbc982daf	-0.018576471
8	0xbe4b39c9	-0.19846262
9	0xbd27a60a	-0.04092983
10	0x3cc6d5b5	0.024271825
11	0x3e6e0940	0.23245716
12	0xbe3db53e	-0.1852617
13	0xbeb61ab7	-0.35567257
14	0x3eae11b8	0.33997893
15	0xbe804bc8	-0.25057817
16	0xbede5312	-0.43422753
17	0xbece00b2	-0.40234905
18	0x3eb13653	0.3461176
19	0xbdc237e5	-0.09483317
20	0x3ec639e9	0.38716057
21	0x3d761383	0.0600772
22	0x3e875698	0.26433253
23	0xbdf28b9b	-0.11843034
24	0xbd34bab0	-0.04412335
25	0x3b4945b2	0.0030711708
26	0xbe530821	-0.2060857
27	0x3b9fa71f	0.0048722173
28	0xbea38252	-0.31935364
29	0x3ec151f8	0.3775785
30	0xbe807b4f	-0.25094077
31	0xbe44205a	-0.19152966

relation_encoder.position_embedding.weight f4 [16, 32]
0	0xbc45ca90	-0.01207222
1	0x3ca301cc	0.019898318
2	0x3e5fb988	0.21848118
3	0xbe34c0ab	-0.17651622
4	0x3e5c0385	0.21485718
5	0xbeaf388c	-0.3422283
6	0xbeb02369	-0.34402016
7	0x3e977944	0.29584706
8	0xbee57dbd	-0.44822493
9	0xbed413c9	-0.41421345
10	0xbd704f74	-0.058669522
11	0xbe16cab3	-0.14725761
12	0xbde10d13	-0.10988822
13	0x3e6d6bf9	0.2318572
14	0x3c3add04	0.011405233
15	0xbe22ab78	-0.15885723
16	0xbe4b3951	-0.19846083
17	0x3df65fff	0.120300286
18	0x3ec2407a	0.37939817
19	0xbebabb45	-0.36471
20	0x3e99f653	0.30070743
21	0x3e584e02	0.21123508
22	0xbe3795ef	-0.17928289
23	0xbe5a29b6	-0.21304974
24	0xbef10f77	-0.4708211
25	0xbea6783b	-0.32513604
26	0x3ef39e23	0.47581586
27	0xbe0c1f05	-0.13683708
28	0x3d0d4971	0.034493867
29	0x3d071ff0	0.032989442
30	0xbdc38eaf	-0.09548699
31	0x3e111b43	0.14170556
32	0xbeb36fe4	-0.35046303
33	0x3e88aa06	0.26692218
34	0xbe05de72	-0.13073137
35	0x3c2b84f2	0.010468708
36	0xbed16386	-0.40896243
37	0xbea68089	-0.3251994
38	0xbe4ff41b	-0.20307963
39	0x3e4523b2	0.19251898
40	0x3ed5a236	0.4172532
41	0xbea8876b	-0.32915816
42	0xbe47a43c	-0.19496244
43	0x3eb1b77c	0.347103
44	0xbe8899eb	-0.2667993
45	0x3d53279d	0.05155145
46	0xbd2c82d2	-0.042116947
47	0xbe01120a	-0.12604538
48	0xbed09089	-0.40735272
49	0x3e1a424c	0.15064353
50	0xbe8c1336	-0.27358407
51	0xbe63cd6c	-0.22246331
52	0x3ec7cc30	0.3902297
53	0xbdf9bfc3	-0.12194779
54	0xbdfb2041	-0.12262011
55	0xbe43f9f6	-0.19138321
56	0x3dcc1669	0.09965212
57	0x3e0ddce0	0.13853788
58	0x3db87d90	0.09008324
59	0x3e5e441f	0.21705674
60	0xbe6dedab	-0.23235194
61	0x3ebc4918	0.36774516
62	0xbe9bad18	-0.30405498
63	0xbe9411f6	-0.28919953
64	0x8000ac75	-6.1866e-41
65	0x0000893f	4.9235e-41
66	0x800088ff	-4.9145e-41
67	0x00008906	4.9155e-41
68	0x0000891b	4.9184e-41
69	0x000089fc	4.95e-41
70	0x80008932	-4.9216e-41
71	0x8000a790	-6.011e-41
72	0x800089e6	-4.9469e-41
73	0x000089b2	4.9396e-41
74	0x00008ac9	4.9787e-41
75	0x800088e8	-4.9113e-41
76	0x80008a26	-4.9558e-41
77	0x80008a9b	-4.9722e-41
78	0x000089d1	4.9439e-41
79	0x80008905	-4.9153e-41
80	0x000088db	4.9094e-41
81	0x0000890d	4.9165e-41
82	0x0000894d	4.9254e-41
83	0x000088d1	4.908e-41
84	0x80009086	-5.1845e-41
85	0x000088e7	4.9111e-41
86	0x80008acb	-4.979e-41
87	0x800089b6	-4.9401e-41
88	0x800088fa	-4.9138e-41
89	0x00008f79	5.1468e-41
90	0x00008998	4.936e-41
91	0x800089a1	-4.9372e-41
92	0x8000894e	-4.9256e-41
93	0x00008952	4.9261e-41
94	0x800088d8	-4.909e-41
95	0x80008957	-4.9268e-41
96	0x00008acd	4.9792e-41
97	0x00008a0a	4.9519e-41
98	0x000088d5	4.9086e-41
99	0x0000895a	4.9272e-41
100	0x0000a427	5.8887e-41
101	0x0000896a	4.9295e-41
102	0x800089bd	-4.9411e-41
103	0x00008977	4.9313e-41
104	0x00008a01	4.9506e-41
105	0x800089ab	-4.9386e-41
106	0x000088ce	4.9076e-41
107	0x8000894f	-4.9257e-41
108	0x000088dc	4.9096e-41
109	0x00008ab1	4.9753e-41
110	0x000088d1	4.908e-41
111	0x80008914	-4.9174e-41
112	0x800088c9	-4.9069e-41
113	0x80008937	-4.9223e-41
114	0x80008945	-4.9243e-41
115	0x80008983	-4.933e-41
116	0x00008c72	5.0382e-41
117	0x00008a4e	4.9614e-41
118	0x80008a22	-4.9553e-41
119	0x0000894b	4.9251e-41
120	0x00008b31	4.9932e-41
121	0x0000a78b	6.0103e-41
122	0x800088cc	-4.9073e-41
123	0x80008983	-4.933e-41
124	0x000088f1	4.9125e-41
125	0x800089bc	-4.941e-41
126	0x800089d4	-4.9443e-41
127	0x00008def	5.0916e-41
128	0x00008929	4.9204e-41
129	0x000089df	4.9459e-41
130	0x00008ad1	4.9798e-41
131	0x000089ae	4.939e-41
132	0x000089ea	4.9474e-41
133	0x800089f8	-4.9494e-41
134	0x800089c9	-4.9428e-41
135	0x0000891c	4.9186e-41
136	0x00009bf7	5.595e-41
137	0x80008912	-4.9172e-41
138	0x80008939	-4.9226e-41
139	0x800089e9	-4.9473e-41
140	0x80008957	-4.9268e-41
141	0x000088c4	4.9062e-41
142	0x80008918	-4.918e-41
143	0x8000905f	-5.179e-41
144	0x0000897c	4.932e-41
145	0x80008974	-4.9309e-41
146	0x00008908	4.9158e-41
147	0x80008992	-4.9351e-41
148	0x000089d4	4.9443e-41
149	0x00008912	4.9172e-41
150	0x8000894d	-4.9254e-41
151	0x00008903	4.915e-41
152	0x000089df	4.9459e-41
153	0x000092f6	5.272e-41
154	0x80008ab4	-4.9757e-41
155	0x00008930	4.9214e-41
156	0x800089b3	-4.9397e-41
157	0x80008a09	-4.9518e-41
158	0x00008a6f	4.966e-41
159	0x00008947	4.9246e-41
160	0x3ea285ce	0.3174271
161	0xbed584f3	-0.41702995
162	0x3e967776	0.29388016
163	0xbe202e22	-0.15642598
164	0xbe08938a	-0.13337532
165	0x3dec3afb	0.11534687
166	0xbe038076	-0.12841973
167	0x3db11d42	0.086481586
168	0x3e6c61e3	0.23084216
169	0xbe7fe75e	-0.24990603
170	0x3c9997ae	0.018749084
171	0x3e8d8f2f	0.27648303
172	0xbe53b806	-0.20675668
173	0x3dfc5683	0.12321188
174	0xbe54bc58	-0.20774972
175	0xbd81cb9e	-0.06337665
176	0x3e5254d7	0.20540176
177	0xbe9f45b4	-0.31107867
178	0x3d8fbd95	0.07018582
179	0xbea7d1aa	-0.32777148
180	0xbec1a43f	-0.37820622
181	0xbd2e5fcc	-0.042571828
182	0xbe6e5d4e	-0.2327778
183	0xbe9eb05e	-0.30993932
184	0xbe4b09ae	-0.19827911
185	0xbe02e0d9	-0.12781085
186	0x3daf825d	0.08569787
187	0xbebb82e2	-0.36623293
188	0x3e22a2d2	0.15882424
189	0xbc35f514	-0.011105794
190	0xbdc13cd4	-0.0943543
191	0x3ec151e6	0.37757796
192	0x3e781c42	0.2422953
193	0x3e579da3	0.21056227
194	0xbea7dd8e	-0.3278622
195	0xbe13a9dd	-0.14420266
196	0x3ec91c5d	0.39279452
197	0xbd1d2879	-0.038368676
198	0x3cecc60a	0.028903026
199	0xbe230043	-0.15918069
200	0x3ea75306	0.3268053
201	0x3e95080e	0.29107708
202	0x3e95d67e	0.29265207
203	0x3d32bb42	0.043635614
204	0x3ea634fd	0.32462302
205	0x3debd43b	0.11515089
206	0x3ca71207	0.020394338
207	0x3e965226	0.2935955
208	0xbe9187d6	-0.28423947
209	0x3ea54d54	0.3228556
210	0x3e7ecc23	0.2488256
211	0x3ea08029	0.31347778
212	0x3e905232	0.2818771
213	0x3c8b2da2	0.016989533
214	0xbe7ca906	-0.24673852
215	0xbe907111	-0.28211263
216	0x3e7cf34e	0.24702188
217	0x3c24fdeb	0.010070304
218	0x3e274b93	0.16337423
219	0xbe845647	-0.25847074
220	0x3e8c1054	0.27356207
221	0x3dd91e13	0.10601439
222	0x3e0db049	0.13836779
223	0xbe21e115	-0.15808518
224	0x80008d5d	-5.0712e-41
225	0x00008913	4.9173e-41
226	0x8000898d	-4.9344e-41
227	0x800089ee	-4.948e-41
228	0x0000937b	5.2906e-41
229	0x000089aa	4.9385e-41
230	0x00008c0a	5.0237e-41
231	0x800088f4	-4.913e-41
232	0x0000ac46	6.18e-41
233	0x800089f4	-4.9488e-41
234	0x800088d7	-4.9089e-41
235	0x80008990	-4.9348e-41
236	0x800088da	-4.9093e-41
237	0x00008c41	5.0314e-41
238	0x80008ae9	-4.9832e-41
239	0x80008a13	-4.9532e-41
240	0x800089eb	-4.9476e-41
241	0x800089e4	-4.9466e-41
242	0x80008918	-4.918e-41
243	0x00008976	4.9312e-41
244	0x00008a18	4.9539e-41
245	0x00008a23	4.9554e-41
246	0x800088be	-4.9054e-41
247	0x0000892c	4.9208e-41
248	0x80008997	-4.9358e-41
249	0x80008c5c	-5.0351e-41
250	0x80008a19	-4.954e-41
251	0x800089e9	-4.9473e-41
252	0x0000890a	4.916e-41
253	0x80008d98	-5.0794e-41
254	0x80008acb	-4.979e-41
255	0x800089ee	-4.948e-41

relation_encoder.self_loop_embedding.weight f4 [1, 32]
0	0x3e42e63f	0.19033144
1	0x3d9cc545	0.07654814
2	0x3e239c80	0.15977669
3	0xbe857748	-0.26067567
4	0xbebf0622	-0.37309366
5	0xbed26d17	-0.41098854
6	0xbedc4a2f	-0.43025348
7	0xbd8b6cc8	-0.06807858
8	0x3e606d59	0.21916713
9	0xbee8cd9c	-0.45469368
10	0xbedb2ee6	-0.42809218
11	0xbe951689	-0.29118755
12	0xbea6871c	-0.32524955
13	0x3d60f299	0.05491886
14	0x3e563795	0.2091964
15	0x3dc56f19	0.09640331
16	0xbeaf1f3a	-0.3420351
17	0x3ebf466f	0.37358424
18	0x3e32a9fc	0.17447656
19	0x3ea5902e	0.32336563
20	0xbeb4c901	-0.35309604
21	0x3aa7dd26	0.0012806996
22	0x3ec473d4	0.3836962
23	0x3e46dbf1	0.19419838
24	0xbebca46d	-0.36844197
25	0x3eb8abfe	0.3606872
26	0xbea1f5ba	-0.31632787
27	0xbe9d8a07	-0.3076937
28	0x3e98a963	0.29816732
29	0xbeaf66ad	-0.34258023
30	0xbdccf9f8	-0.10008615
31	0xbeb73870	-0.35785246

relation_encoder.W_ht2r.0.weight f4 [32, 96]
0	0xbe206c1f	-0.15666245
1	0xbdb4082c	-0.08790621
2	0xbe0b6a7e	-0.13614842
3	0x3e38ea6a	0.18058172
4	0xbcdb18b0	-0.02674517
5	0x3ce14951	0.02750078
6	0xbe35c516	-0.17750964
7	0x3e034c55	0.12822087
8	0xbcee9650	-0.029124409
9	0x3c6b96f0	0.014379248
10	0x3e7bed24	0.2460218
11	0xbe58311a	-0.21112481
12	0x3e0faa57	0.14029823
13	0x3d4e0eb1	0.05030698
14	0xbda83143	-0.08212521
15	0x3e7223ea	0.23646513
16	0x3d553259	0.05204997
17	0xbdced784	-0.100997
18	0x3d13c456	0.036075912
19	0x3dce2531	0.100656874
20	0xbdb3a9cb	-0.0877262
21	0xbd8a2ab3	-0.067464255
22	0x3d79e3e4	0.06100835
23	0xbda7de3c	-0.08196685
24	0xbc424e86	-0.011859542
25	0xbe1e8ac1	-0.15482618
26	0x3e441b4b	0.19151036
27	0x3e9f483e	0.31109804
28	0xbe3e154f	-0.18562816
29	0x3e27df56	0.1639379
30	0x3ddb2d91	0.107020505
31	0x3e29b211	0.16571833
32	0x3ddbd0a4	0.107331544
33	0x3de3f2ff	0.11130332
34	0xbd2855e1	-0.041097526
35	0xbe389a06	-0.18027505
36	0x3e19a279	0.15003385
37	0x3df23b56	0.11827724
38	0x3ced3103	0.028954035
39	0x3d0796a8	0.03310266
40	0x3db63667	0.08897095
41	0xbdace66f	-0.08442389
42	0xbe3689b4	-0.17825967
43	0x3e254ce4	0.16142613
44	0x3c8b763a	0.017024148
45	0xbe02046c	-0.12697
46	0xbe4aff52	-0.1982396
47	0x3dd520c0	0.10406637
48	0xbe22c949	-0.15897097
49	0xba961e9e	-0.0011453216
50	0x3dde778f	0.10862648
51	0xbe2e69d1	-0.17032553
52	0xbc187e24	-0.009307418
53	0x3e440997	0.19144283
54	0xbc5c3493	-0.013440269
55	0xbd73a755	-0.059485752
56	0x3df57191	0.11984552
57	0xbd1f8f40	-0.038954973
58	0xbdc9088b	-0.098160826
59	0xbe12606c	-0.14294595
60	0x3e27e1b3	0.16394691
61	0xbd8954dc	-0.06705639
62	0x3e9d0d8b	0.30674395
63	0x3d82977b	0.06376549
64	0xbaf331b8	-0.0018554246
65	0x3c440f87	0.011966593
66	0x3e0c7b8d	0.13719006
67	0x3c267ac2	0.010161104
68	0x3d652a65	0.055948634
69	0x3d6fcbf9	0.058544133
70	0xbd02bc4c	-0.031917855
71	0xbc11e271	-0.0089040855
72	0x3dd88797	0.10572737
73	0x3d402153	0.04690678
74	0x3ce6f975	0.028195122
75	0xbdc2c0bc	-0.095094174
76	0x3e1e9519	0.15486564
77	0xbd104a86	-0.03522732
78	0xbd4b4a0c	-0.049631163
79	0xbe2cd28a	-0.1687719
80	0xbe46c4ad	-0.19410963
81	0xbdf806ac	-0.121106476
82	0x3dea392c	0.11436686
83	0xbe09c7c7	-0.13455115
84	0xbd411ac2	-0.04714466
85	0xbd80af4c	-0.06283435
86	0x3e086715	0.13320573
87	0x3c517641	0.012784542
88	0xbd92023f	-0.07129335
89	0x3c3e6258	0.011620127
90	0x3d966ba2	0.07344748
91	0xbc6fcbff	-0.014636039
92	0x3e1b2c2c	0.15153569
93	0x3e349b24	0.17637306
94	0x3c638ca4	0.013888512
95	0xbe033b96	-0.12815699
96	0xbe301335	-0.17194827
97	0x3dea496e	0.11439787
98	0xbddc6c06	-0.10762791
99	0xbde1274e	-0.10993825
100	0x3d9ee5cc	0.07758674
101	0x3e269d74	0.16271001
102	0x3dadbc05	0.084831275
103	0xbde36267	-0.11102753
104	0xbe64d09b	-0.22345202
105	0x3e53635b	0.2064337
106	0xbd2180a5	-0.039429326
107	0xbe58514e	-0.21124765
108	0x3d7a813b	0.0611584
109	0xbdd99abd	-0.10625217
110	0x3dff7732	0.124739066
111	0x3e1b2662	0.1515136
112	0xbe56edbc	-0.20989126
113	0xbe06768f	-0.13131164
114	0xbd28dfae	-0.041228943
115	0xbca76eaa	-0.02043851
116	0xbd6578e3	-0.05602349
117	0xbc9b7ee6	-0.018981408
118	0xbda850dc	-0.08218548
119	0x3dff35d3	0.12461438
120	0x3cb3fe4a	0.02197184
121	0x3db3273c	0.08747718
122	0x3dc5e02c	0.09661898
123	0x3e434a72	0.19071367
124	0x3e2c4326	0.1682249
125	0xbe527159	-0.20551051
126	0xbd544f7f	-0.051833626
127	0x3d829b06	0.063772246
128	0x3d47583d	0.048668135
129	0x3c2dd985	0.010610943
130	0xbe23035a	-0.15919247
131	0xbdad612e	-0.08465801
132	0x3d16eaf3	0.03684516
133	0xbca642da	-0.02029555
134	0x3dc834ae	0.09775673
135	0xbd0843b5	-0.033267695
136	0x3d62b728	0.055350453
137	0x3cb49482	0.02204347
138	0xbdf5fc1f	-0.12010979
139	0xbdfcfc69	-0.12352831
140	0x3e1d564a	0.15364948
141	0x3df2066d	0.11817632
142	0xbd9736c9	-0.07383496
143	0x3de89335	0.113562025
144	0xbe4a57ee	-0.19760105
145	0x3d7e4277	0.062075105
146	0x3e331845	0.17489727
147	0x3df4f80c	0.11961374
148	0xbe8f8eec	-0.28038728
149	0xbde9e6af	-0.114209525
150	0x3d7e011b	0.062012773
151	0x3e118a57	0.14212929
152	0xbe11a9a2	-0.14224866
153	0xbd8cf777	-0.06883138
154	0xbdf6144c	-0.1201559
155	0xbb803412	-0.0039124573
156	0xbe2e5754	-0.170255
157	0x3dc3b17a	0.09555335
158	0x3d890a49	0.06691415
159	0xbdf30ba8	-0.11867458
160	0x3d839b1d	0.0642607
161	0x3df4a113	0.11944785
162	0xbd36aac1	-0.044596437
163	0x3dd494bc	0.10379931
164	0x3daabe0c	0.0833703
165	0xbe0c95c9	-0.13729014
166	0x3d026cce	0.031842045
167	0xbc8957b2	-0.01676545
168	0x3d148d9c	0.03626786
169	0xbca4e4e0	-0.020128667
170	0x3bcdee3a	0.0062845023
171	0xbda23c02	-0.07921602
172	0x3e050601	0.12990572
173	0xbdde290e	-0.10847674
174	0x3dc1366c	0.09434208
175	0xbdb5635f	-0.08856844
176	0x3d19010a	0.037354507
177	0xbcf007cb	-0.029300591
178	0x3dbacfea	0.09121688
179	0xbcc3159d	-0.023814017
180	0x3cae5871	0.021282407
181	0x3d0aef25	0.033919472
182	0x3d262b46	0.040568613
183	0xbdb09a28	-0.08623153
184	0xbd17b8e4	-0.03704156
185	0x3b50d84d	0.0031867207
186	0xbe06adf7	-0.131523
187	0xbb7f8b01	-0.0038992765
188	0x3ce8f722	0.028438155
189	0x3dbe8593	0.09302821
190	0xbddafc49	-0.10692651
191	0x3daeebcd	0.08541069
192	0x3ddccd15	0.10781304
193	0x3e76fe85	0.24120529
194	0x3e743495	0.23848183
195	0xbe89af23	-0.2689143
196	0xbe57c97b	-0.21072952
197	0x3d275044	0.04084803
198	0x3d7b6122	0.06137193
199	0x3e711e3f	0.23546694
200	0xbe261eaf	-0.16222642
201	0xbe4819ef	-0.19541143
202	0x3e3ff3c6	0.18745336
203	0x3dc3e824	0.09565762
204	0x3d3db3a6	0.046313904
205	0xbbaee22e	-0.0053370213
206	0x3d849069	0.064728566
207	0xbe2a2b3b	-0.16618054
208	0x3e52453c	0.20534223
209	0xbe2facd3	-0.17155771
210	0xbd46d9c4	-0.04854752
211	0xbe3dadb8	-0.185233
212	0x3e98ceee	0.29845375
213	0x3ce3e695	0.027819911
214	0xbd7b715a	-0.061387397
215	0x3de96e07	0.11397939
216	0x3e183d16	0.14867052
217	0x3a57f452	0.00082380057
218	0xbd931e51	-0.07183517
219	0xbe3cb53c	-0.1842851
220	0xbe4fe5bf	-0.20302485
221	0xbe082d5f	-0.13298558
222	0xbe883256	-0.26600903
223	0xbe2e6da6	-0.17034015
224	0x3deb1c46	0.11480002
225	0x3d33e4f1	0.043919507
226	0x3d8925d7	0.066966705
227	0x3d22b237	0.03972074
228	0x3c7b129c	0.015324261
229	0xbe25ffad	-0.16210814
230	0x3db183d2	0.08667721
231	0x3d74fe43	0.059812795
232	0xbd8bfb13	-0.06834998
233	0x3db0a2d1	0.08624805
234	0xbe07291b	-0.13199274
235	0x3de370b9	0.111054845
236	0x3d0a6be3	0.033794295
237	0xbe3b7d18	-0.18309438
238	0xbcf860c2	-0.030319575
239	0x3d3c031b	0.0459014
240	0xbcdc87b8	-0.026920184
241	0xbcc25da9	-0.023726301
242	0xbe2c3226	-0.16816005
243	0x3e3362b8	0.17518127
244	0xbe765336	-0.2405518
245	0xbe1752fd	-0.14777751
246	0x3dc6bd95	0.09704129
247	0xbcd3d9ad	-0.025860632
248	0x3e0b90e0	0.13629484
249	0xbde5d819	-0.11222858
250	0xbdc71d5b	-0.09722396
251	0x3c0452de	0.008076398
252	0xbd7982e0	-0.060915828
253	0x3d0d30d6	0.0344704
254	0xbe015c4d	-0.12632866
255	0x3e7b489a	0.24539414

relation_encoder.W_ht2r.0.bias f4 [32]
0	0x3c868a98	0.016423509
1	0xba8223b3	-0.0009928852
2	0x3d0c8705	0.034308452
3	0xbbddfb4e	-0.0067743426
4	0xbcc809a1	-0.024418654
5	0xbccb7f43	-0.024840957
6	0x3c0fe548	0.008782692
7	0xbbd9cbeb	-0.0066466234
8	0xbdb8b8d5	-0.09019629
9	0xbccac069	-0.024749951
10	0x3cae036d	0.021241868
11	0xbb1d479f	-0.0023998988
12	0xbd034989	-0.03205255
13	0xbd0fdc3c	-0.03512214
14	0xbc50e460	-0.012749761
15	0xbcb1f4f5	-0.02172325
16	0x3cc14560	0.02359265
17	0xbcd2c2e4	-0.025727697
18	0xbd665b07	-0.056239154
19	0xbcc32878	-0.023823008
20	0xbcb5fb6a	-0.02221461
21	0xbb32c0ec	-0.0027275635
22	0x3c9c4892	0.019077573
23	0x3cd87f3b	0.026427856
24	0xbb8c0052	-0.004272499
25	0x3c9a0b8b	0.018804332
26	0xbd157d7a	-0.036496617
27	0xbc635cf0	-0.0138771385
28	0xbd39da61	-0.045374278
29	0x3bd9ad4b	0.0066429726
30	0x3c9ec626	0.019381594
31	0xbb11e256	-0.002226015

relation_encoder.W_ht2r.1.weight f4 [32, 96]
0	0xbdba712a	-0.091036156
1	0xbe5cd626	-0.21566066
2	0xbd51852b	-0.05115239
3	0xbe1735e2	-0.14766648
4	0xbde479d4	-0.11156049
5	0x3ccd55bd	0.025065297
6	0x3dcc3c5b	0.099724494
7	0xbe540c56	-0.20707831
8	0xbe233b68	-0.1594063
9	0xbc12169f	-0.008916526
10	0xbd41894e	-0.047250085
11	0x3d96de07	0.07366567
12	0x3cd59758	0.026073143
13	0xbe140ca8	-0.14457953
14	0x3d404c2d	0.046947647
15	0xbe368afa	-0.17826453
16	0x3cf30341	0.029664638
17	0xbc9f14b4	-0.019419052
18	0xbe38b6cb	-0.1803848
19	0x3cc30ca1	0.023809733
20	0x3e3c72fc	0.18403238
21	0xbe35536b	-0.17707603
22	0xbc8ce050	-0.017196804
23	0x3e38acfd	0.1803474
24	0x3dacde56	0.08440845
25	0x3c3aedad	0.011409205
26	0x3d81798c	0.06322011
27	0xbe1f608f	-0.15564178
28	0x3e90d74d	0.2828926
29	0x3e2ab27f	0.16669653
30	0xbc87fdd0	-0.01660052
31	0xbde47ac9	-0.11156232
32	0xbe1d9b4f	-0.15391277
33	0x3dd9fc94	0.106438786
34	0x3cd40cb3	0.025884962
35	0x3e12e7d4	0.14346248
36	0x3de875fa	0.11350627
37	0xbdd08994	-0.10182491
38	0x3c0ff685	0.008786802
39	0xbe422a01	-0.18961336
40	0xbe229d44	-0.15880305
41	0x3e481829	0.19540466
42	0xbdb0d0a2	-0.086335436
43	0x3dc80fa0	0.09768605
44	0xbdc917ab	-0.098189674
45	0x3db1924b	0.08670481
46	0xbe1a189f	-0.15048455
47	0xbe8689bf	-0.26276967
48	0x3e892a77	0.2679021
49	0xbdb38d91	-0.08767236
50	0xbe5b9235	-0.21442492
51	0xbe484f84	-0.19561583
52	0x3d170ed3	0.03687937
53	0x3da8fae9	0.08250982
54	0xbe64b5a7	-0.2233492
55	0xbe033b67	-0.12815629
56	0x3e028110	0.12744546
57	0xbd161c27	-0.036647942
58	0x3e24eb7e	0.16105458
59	0x3da35def	0.07976901
60	0xbde40b60	-0.11134982
61	0x3e99e9d2	0.30061203
62	0x3cb1dffd	0.021713251
63	0xbe078dd3	-0.13237695
64	0x3e80084e	0.25006336
65	0x3e078e62	0.13237908
66	0xbe47b3de	-0.19502208
67	0xbd3f0289	-0.046633277
68	0xbe2d8234	-0.169442
69	0x3df1a77b	0.117995225
70	0x3e17db86	0.14829835
71	0xbddec9e5	-0.10878352
72	0xbc87b905	-0.016567716
73	0xbe1480b4	-0.14502221
74	0xbe578e93	-0.21050481
75	0x3c8e6b40	0.017385125
76	0xbd224609	-0.039617572
77	0x3db7471e	0.089491114
78	0x3e465eb6	0.19372067
79	0x3b7288db	0.0037007842
80	0xbe39d6c2	-0.1814833
81	0x3c5a1129	0.013309755
82	0xbe3d5ab7	-0.18491636
83	0xbe3797af	-0.17928956
84	0x3de5fbb4	0.11229649
85	0xbdfb5960	-0.12272906
86	0xbd9226e4	-0.07136324
87	0x3e2f05e7	0.17092095
88	0x3e14ef1b	0.14544336
89	0xbe22d516	-0.15901598
90	0x3e587e61	0.2114196
91	0x3df36786	0.1188498
92	0x3d96d631	0.073650725
93	0xbdd439f9	-0.1036262
94	0xbdc194ec	-0.09452233
95	0x3e09948a	0.1343557
96	0xbe04ac59	-0.1295637
97	0xbe148743	-0.14504723
98	0x3d5c0ff4	0.05372615
99	0xbd763b5b	-0.0601152
100	0xbd1b5f21	-0.03793252
101	0xbcb0b02e	-0.021568384
102	0x3e24d1ac	0.16095608
103	0xbdbc5b44	-0.09197095
104	0xbe508539	-0.2036332
105	0xbe7ea2db	-0.24866812
106	0xbe319caa	-0.17344919
107	0xbe8e0511	-0.2773824
108	0x3e6860f4	0.22693235
109	0xbddc8ffb	-0.107696496
110	0x3e36fcd2	0.17869881
111	0xbb2a02f1	-0.0025941695
112	0xbd2d8972	-0.042367406
113	0x3e0dd2c2	0.13849929
114	0xbde64f64	-0.11245611
115	0xbc39368d	-0.01130451
116	0xbe57ba0e	-0.21067068
117	0x3d70edd8	0.058820575
118	0x3e5781bb	0.21045582
119	0xbd76524b	-0.060137074
120	0x3d7f514d	0.062333394
121	0xbd85fb97	-0.065421276
122	0x3b123d22	0.002231427
123	0x3d80c6e1	0.06287933
124	0x3dcc4702	0.09974481
125	0xbd423591	-0.047414366
126	0xbc1ea957	-0.009683928
127	0x3db5f2b8	0.088841856
128	0x3daa6117	0.083193
129	0xbda437b4	-0.08018437
130	0xbd3be7fd	-0.04587554
131	0x3e76cf64	0.2410255
132	0xbd44e757	-0.048072185
133	0xbd2429ed	-0.040079046
134	0x3ca9609c	0.02067595
135	0xbdfc65a3	-0.12324073
136	0x3e568c1f	0.2095189
137	0xbe186795	-0.14883263
138	0xbd172082	-0.036896236
139	0xbb71f34a	-0.0036918693
140	0x3e0441b4	0.12915689
141	0xbcb2d651	-0.02183071
142	0x3d140ae2	0.03614319
143	0x3e04301b	0.12908976
144	0x3e7c4475	0.2463549
145	0xbe9d7291	-0.3075147
146	0x3d8fdf23	0.07024982
147	0x3e46ad50	0.19402051
148	0xbd4b8396	-0.049686037
149	0x3e2b1095	0.16705544
150	0xbe50ebd8	-0.20402467
151	0xbcbd1ba6	-0.023084473
152	0xbb2137ad	-0.0024599836
153	0xbe3908f1	-0.18069817
154	0xbe34209b	-0.17590563
155	0x3e2befd5	0.16790707
156	0x3d373650	0.04472953
157	0xbd56b2be	-0.052416556
158	0x3e890c79	0.26767328
159	0xbdff5c78	-0.12468809
160	0xbc55e8fe	-0.013056038
161	0xbdccc226	-0.099979684
162	0x3d156056	0.036468826
163	0x3e24ebd3	0.16105585
164	0xbcbd1688	-0.023082033
165	0x3c9325d5	0.017962376
166	0xbe3dbca0	-0.18528986
167	0x3cafd426	0.021463465
168	0xbe1c36e6	-0.15255317
169	0xbd7282c4	-0.05920674
170	0xbd18d4e5	-0.037312407
171	0x3d6a305b	0.05717502
172	0x3d8dabf5	0.06917564
173	0x3e306968	0.1722771
174	0x3e11a2d7	0.14222275
175	0x3e586ab8	0.2113446
176	0x3e06a282	0.1314793
177	0x3e0de502	0.13856891
178	0x3e1042f7	0.14088045
179	0x3d1360f7	0.035981145
180	0x3ded47c8	0.11585957
181	0x3df1e583	0.11811354
182	0x3de0f1ff	0.10983657
183	0x3d6c94be	0.05775904
184	0x3de5136f	0.11185347
185	0xbdc313c3	-0.095252536
186	0x3ddce287	0.10785394
187	0xbd07ba69	-0.03313676
188	0x3d70192c	0.058617756
189	0x3e1d00b7	0.15332304
190	0x3e19a73e	0.15005204
191	0x3e20964c	0.15682334
192	0x3e0e2b18	0.13883626
193	0xbd3183be	-0.04333853
194	0x3e767a5b	0.24070112
195	0x3c89a74a	0.016803402
196	0xba84e78a	-0.0010139805
197	0xbd6c0d86	-0.057630084
198	0x3e0dbb85	0.13841064
199	0xbcc8456d	-0.024447167
200	0xbe12fecf	-0.14355014
201	0x3db58bf6	0.08864586
202	0x3cc98fad	0.024604643
203	0x3e2d1f27	0.16906415
204	0xbdd5ba6b	-0.10435947
205	0xbd403ee4	-0.046934977
206	0xbe45daf2	-0.19321802
207	0xbe9a96fa	-0.3019331
208	0xbd9144e6	-0.070932195
209	0xbc67ec44	-0.014155451
210	0xbc6809ff	-0.0141625395
211	0xbd40cecf	-0.047072228
212	0x3d6df5bc	0.05809568
213	0x3e4e997d	0.20175739
214	0x3d2864b4	0.041111663
215	0xbe2d17e7	-0.1690365
216	0xbcf80ea9	-0.030280428
217	0x3b945c62	0.0045276145
218	0x3bafb730	0.005362414
219	0xbe3d6071	-0.1849382
220	0xbd033aff	-0.032038685
221	0x3e45af2b	0.19305103
222	0x3e1e7a40	0.15476322
223	0x3d0566bf	0.03256869
224	0x3e3c282f	0.18374704
225	0x3bc91c4f	0.006137408
226	0xbd6d1dc3	-0.05788971
227	0xbe003df8	-0.12523639
228	0xbde4e58f	-0.11176597
229	0xbdaea580	-0.0852766
230	0xbded0362	-0.11572911
231	0xbe0894a7	-0.13337956
232	0x3e2cf896	0.16891703
233	0xbdcc0e5b	-0.099636756
234	0x3d901414	0.070350796
235	0x3cc83f73	0.024444317
236	0xbdd705c8	-0.104991496
237	0x3d88d5da	0.06681414
238	0x3d67d1ba	0.056596495
239	0xbbd76fe5	-0.006574618
240	0xbd4da037	-0.05020162
241	0xbdf49cae	-0.11943947
242	0x3e3a1606	0.18172464
243	0x3e1f5c15	0.1556247
244	0xbd4e5da3	-0.050382268
245	0xbe15c841	-0.14627172
246	0xbe13d4f3	-0.14436702
247	0x3e2b033e	0.16700456
248	0xbda5bcd4	-0.08092657
249	0xbc4aedd2	-0.012385802
250	0x3e12dd95	0.1434234
251	0xbe25cfbd	-0.16192527
252	0x3d99b253	0.07504716
253	0xbe273a81	-0.16330911
254	0x3e09c0a2	0.1345239
255	0xbd5ff70d	-0.054678965

relation_encoder.W_ht2r.1.bias f4 [32]
0	0xbc207683	-0.00979388
1	0xbc2e3140	-0.010631859
2	0x3c53dcc6	0.012931054
3	0xbbe4283c	-0.006962804
4	0xbcbeb1d9	-0.023278164
5	0x3ca17ed3	0.019713795
6	0xbc844ec1	-0.016150834
7	0xbd3165a5	-0.043309826
8	0xbc14f3b4	-0.0090913065
9	0xbd10b907	-0.035332706
10	0x3c4763ea	0.012169817
11	0x3d09444d	0.033512402
12	0x3c70c94c	0.01469643
13	0xbcc60755	-0.024173418
14	0xbc9af18b	-0.018914005
15	0xbb8fff98	-0.004394483
16	0xbd212b7a	-0.039348103
17	0xb8305063	-4.2036536e-05
18	0xbcb51a25	-0.022107193
19	0xbc61d8ff	-0.013784646
20	0xbd2515f7	-0.04030415
21	0xbbbc37d4	-0.00574396
22	0x3d0f92cb	0.035052102
23	0x3bf51607	0.0074794325
24	0x3ce5abc6	0.02803601
25	0xbd06a529	-0.032872353
26	0xbb987d6f	-0.0046536247
27	0xbd354a65	-0.0442604
28	0xbcf0e106	-0.029404175
29	0xbb1c64d3	-0.0023863807
30	0xbca7add6	-0.020468634
31	0xbb8af2b3	-0.004240358

relation_encoder.W_ht2r.2.weight f4 [32, 96]
0	0x3cacfe89	0.021117466
1	0xbd8a51b9	-0.067538686
2	0xbd6d6a3a	-0.057962634
3	0xbe238b8b	-0.159712
4	0xbd86f61f	-0.065899126
5	0xbe07af93	-0.1325057
6	0x3b267cec	0.002540405
7	0xbdadd128	-0.08487159
8	0x3d26d863	0.040733706
9	0x3e5ed2d0	0.21760106
10	0xbd899dd6	-0.06719558
11	0x3c38e040	0.011283934
12	0xbbdedf1e	-0.0068015
13	0x3d611da0	0.054959893
14	0xbe03e170	-0.12878966
15	0x3bb9757f	0.0056597586
16	0x3db1b4c1	0.08677054
17	0xbcbaff59	-0.022826837
18	0x3e064170	0.131109
19	0xbe4eda25	-0.20200403
20	0xbe06bd14	-0.13158065
21	0xbd26a718	-0.040686697
22	0x3dea38c2	0.11436607
23	0x3defe3f1	0.11713398
24	0xbdb0c0dd	-0.08630536
25	0xbd3f8bc3	-0.046764147
26	0x3d6bd888	0.057579547
27	0xbc397aac	-0.011320751
28	0x3e2175ed	0.15767641
29	0xbe300313	-0.17188673
30	0xbd7f06f3	-0.062262487
31	0xbdb03ef9	-0.08605761
32	0xbd5e2e1c	-0.054243192
33	0x3e0473ec	0.12934846
34	0x3dc98245	0.098393
35	0xbd942c02	-0.07234956
36	0xbdf2faba	-0.118642285
37	0xbd61eac7	-0.05515554
38	0xbdc47357	-0.09592312
39	0xbe2af1f7	-0.16693865
40	0x3db6768a	0.08909328
41	0x3df884ff	0.12134742
42	0x3e821738	0.2540834
43	0xbdd62be0	-0.10457587
44	0x3e3bfc83	0.18358044
45	0xbde56c70	-0.112023234
46	0x3c8bda0f	0.017071752
47	0x3d92787d	0.071518876
48	0xbd50921a	-0.050920583
49	0xbc59291e	-0.013254432
50	0xbdd5476c	-0.10414013
51	0xbc21848a	-0.00985826
52	0xbe600af9	-0.21879186
53	0xbe0b530e	-0.13605902
54	0x3e45451b	0.19264643
55	0x3c171470	0.009221181
56	0xbc28fb48	-0.010313816
57	0x3e5511ae	0.20807526
58	0x3d3fa1ae	0.04678505
59	0xbc22912e	-0.009922309
60	0xbd4fc20a	-0.05072216
61	0xbd994569	-0.07483942
62	0xbdeffd0d	-0.117181875
63	0x3d2df711	0.04247195
64	0x3e022285	0.1270848
65	0xbdfdc59c	-0.123912066
66	0xbdbd5033	-0.092438124
67	0xbc7a4c0f	-0.015276923
68	0xbdf76a19	-0.120807834
69	0x3dd2147f	0.102578156
70	0xbd968cd1	-0.07351077
71	0xbc333de2	-0.010940047
72	0x3e1f7632	0.15572432
73	0x3dfb0e22	0.12258555
74	0xbe081e32	-0.13292769
75	0x3d9c96ff	0.07645988
76	0x3ddf36d9	0.10899133
77	0x3d55f7fa	0.052238442
78	0x3c02852c	0.007966321
79	0x3e18d140	0.14923573
80	0xbd8af3d3	-0.06784787
81	0x3df76682	0.12080099
82	0xbdbe1358	-0.09281033
83	0xbc4c122e	-0.012455506
84	0xbc931bad	-0.017957533
85	0xbbfa73e8	-0.0076432116
86	0xbd6319f5	-0.055444676
87	0xbd8e50e7	-0.06949025
88	0xbe1c98c8	-0.15292656
89	0xbd4673a8	-0.048450142
90	0x3dfe284a	0.12410028
91	0xbe23e73f	-0.16006182
92	0xbd78d8f5	-0.06075378
93	0xbd220097	-0.039551344
94	0xbbe9a422	-0.007130162
95	0x3dd22186	0.102603
96	0x3cf29894	0.02961377
97	0x3dfffc3d	0.124992825
98	0x3e8883ee	0.26663154
99	0xbe4dbce2	-0.20091584
100	0xbd21d073	-0.039505433
101	0xbc149936	-0.009069731
102	0xbc3a0bd8	-0.011355363
103	0xbded4289	-0.11584956
104	0xbe1583d0	-0.14601064
105	0x3d9cfda8	0.076655686
106	0xbe062721	-0.13100864
107	0xbda22d12	-0.07918753
108	0xbd5e9b3e	-0.05434727
109	0x3d9e0769	0.07716257
110	0x3e1e76bd	0.15474983
111	0x3bbe243a	0.0058026584
112	0x3dc30b15	0.09523598
113	0xbe83b0c5	-0.25720802
114	0x3e268143	0.16260247
115	0x3c3652f5	0.011128177
116	0xbe38b9e1	-0.18039657
117	0xbc4232dd	-0.011852947
118	0xbdf48916	-0.119402096
119	0x3acf4b93	0.001581537
120	0x3d6a75dd	0.05724131
121	0xbd30ddbc	-0.043180212
122	0x3dcffee2	0.10156037
123	0xbdb18ab5	-0.086690344
124	0xbe062aa1	-0.13102199
125	0x3dcc0233	0.09961357
126	0x3df295ea	0.11845
127	0x3ddb23a4	0.10700157
128	0xbd4e6da5	-0.050397534
129	0x3e0d900a	0.13824478
130	0x3e183dc1	0.14867307
131	0xbe0fa04e	-0.14025995
132	0x3d124269	0.035707865
133	0xbdb2aaca	-0.08723982
134	0x3e22bec5	0.15893085
135	0xbc0b8b6f	-0.00851713
136	0xbd0bd18a	-0.03413538
137	0xbb6995ab	-0.0035642188
138	0xbe2e6b20	-0.17033052
139	0x3d317537	0.043324675
140	0x3da2b6fe	0.07945059
141	0x3e22066e	0.15822765
142	0x3da6020a	0.08105858
143	0x3e3a3d6f	0.18187498
144	0x3dfe98ea	0.1243151
145	0x3d3f0563	0.046635997
146	0xbe2ec3f3	-0.17066936
147	0x3c197936	0.009367278
148	0xbc723d13	-0.014785069
149	0x3d92475f	0.07142519
150	0x3e21b04e	0.15789911
151	0x3cff8b28	0.031194285
152	0x3cbd357e	0.023096796
153	0x3e25fa17	0.16208683
154	0x3e1b227b	0.15149872
155	0xbd088531	-0.033330146
156	0x3e1e5ef0	0.15465903
157	0xbd8a3e36	-0.06750147
158	0x3cfb9177	0.030709011
159	0x3d5de354	0.054171875
160	0xbdf12d7b	-0.11776253
161	0x3e177331	0.14790036
162	0x3bbfb937	0.0058509368
163	0x3d656629	0.05600563
164	0x3d28c0b6	0.04119941
165	0xbcaa78de	-0.020809587
166	0xbc9b6b39	-0.018972026
167	0xbd3a93db	-0.045551162
168	0x3db7d9c5	0.08977083
169	0xbce0a766	-0.027423572
170	0xbe3ec6ba	-0.18630496
171	0x3d0827bf	0.03324103
172	0x3e40e1da	0.18836156
173	0x3d2604f3	0.040532064
174	0xbe5e5516	-0.21712145
175	0x3da3b246	0.07992987
176	0xbe129330	-0.1431396
177	0xbcfb7f52	-0.03070036
178	0x3cbbea69	0.022938924
179	0x3d6c1852	0.05764038
180	0x3dad99d0	0.08476603
181	0xbd9d8bd1	-0.076926835
182	0xbd5151b9	-0.051103327
183	0xbe627ef9	-0.22118749
184	0x3de89425	0.11356381
185	0xbc564e62	-0.013080211
186	0x3d36eb42	0.044657953
187	0x3e637cc1	0.22215559
188	0xbe26b38a	-0.16279426
189	0xbde3569b	-0.11100503
190	0x3e097976	0.1342524
191	0x3d71d294	0.059038714
192	0xbdaba773	-0.08381548
193	0x3dab85f5	0.0837516
194	0x3e568d11	0.2095225
195	0x3d9866aa	0.074414566
196	0x3d0ace6c	0.033888265
197	0xbd0cea3d	-0.034403075
198	0xbd521c83	-0.051296722
199	0x3d7aa796	0.06119498
200	0x3df9ac2c	0.12191042
201	0xbcfe522c	-0.031045042
202	0xbd574a44	-0.05256106
203	0x3e026899	0.12735213
204	0x3d60227e	0.054720394
205	0x3d963728	0.07334739
206	0x3d7d7b49	0.061885152
207	0xbdab8ffd	-0.08377073
208	0xbd8d21fc	-0.06891248
209	0xbde0f0ef	-0.109834544
210	0x3e55f157	0.20892845
211	0xbd1bfb2f	-0.038081344
212	0x3e02abc6	0.12760839
213	0x3e05a13d	0.13049789
214	0x3dd6417d	0.1046171
215	0xbe56ce84	-0.20977217
216	0xbe7c7a89	-0.24656118
217	0xbe493afc	-0.19651407
218	0x3d5599e6	0.052148722
219	0x3d6a7c16	0.057247244
220	0x3d2d3030	0.042282283
221	0x3d8d5e0c	0.06902704
222	0xbe2c297b	-0.16812699
223	0x3dc710c6	0.09719996
224	0xbada2aad	-0.0016644798
225	0xbe1fdefa	-0.15612403
226	0xbd1a22b0	-0.037630737
227	0x3e260691	0.16213442
228	0x3c81f42b	0.015863499
229	0x3c4ea8e4	0.012613509
230	0x3d40809f	0.046997663
231	0xbd91f8b0	-0.071275115
232	0xbe1f54b8	-0.15559661
233	0xbe6169fc	-0.22013086
234	0x3e915808	0.28387475
235	0xbc1c6ae2	-0.009546967
236	0xbd2ca3a9	-0.042148266
237	0xbe2b129f	-0.16706322
238	0xbde118be	-0.10991047
239	0x3e41bad1	0.18918921
240	0x3ced9798	0.02900295
241	0x3c9e8ed4	0.019355215
242	0x3e2b0eb1	0.16704823
243	0xbe753627	-0.23946439
244	0x3e2db397	0.1696304
245	0xbcde5fb1	-0.027145239
246	0x3d3e024b	0.046388905
247	0x3e509c1f	0.20372055
248	0xbe045a6f	-0.12925123
249	0x3c465d0d	0.012107146
250	0xbe14ca37	-0.14530264
251	0xbdb4092a	-0.087908104
252	0x3d989256	0.07449786
253	0xbe160329	-0.14649643
254	0x3d2c23cd	0.04202633
255	0xbcf1491d	-0.029453808

relation_encoder.W_ht2r.2.bias f4 [32]
0	0xbc842253	-0.016129648
1	0xbce7e812	-0.028308902
2	0xbd1339d4	-0.03594382
3	0x3c7e1d9b	0.015509988
4	0xbcfd7c1f	-0.030942975
5	0xba56eb60	-0.0008198526
6	0xbc9193b1	-0.01777062
7	0xbc8e2b67	-0.01735468
8	0x3cc25444	0.023721822
9	0x378fee18	1.71578e-05
10	0x398627f4	0.0002558824
11	0xbd2524d1	-0.040318314
12	0x3d075761	0.033042315
13	0xbd1964cf	-0.037449654
14	0xbc5514a0	-0.013005406
15	0xbb1b6266	-0.0023709773
16	0xbcdf4284	-0.027253397
17	0xbc7f170b	-0.015569459
18	0xbbfa9f4d	-0.0076483847
19	0x3c6c66ae	0.014428778
20	0xbcbbd077	-0.022926552
21	0x3c5bf924	0.013426099
22	0xbc0e9da8	-0.00870458
23	0x3cc8f89a	0.024532605
24	0xbaed163f	-0.0018088295
25	0xbd5facfd	-0.054608334
26	0x3ca28d8c	0.019842885
27	0xbcecb9e3	-0.028897231
28	0xbce0d976	-0.027447443
29	0x3cf156d0	0.02946034
30	0xbcb666d5	-0.022265831
31	0xbd101ac6	-0.035181783

relation_encoder.W_message.0.weight f4 [32, 96]
0	0xbd47f53d	-0.04881786
1	0xbd980ef1	-0.07424725
2	0x3d4a24d5	0.049351532
3	0xbe64a980	-0.22330284
4	0xbd50c57c	-0.050969586
5	0xbe0f5cf0	-0.14000297
6	0xbeaa0d3d	-0.33213225
7	0x3d82f5c1	0.0639453
8	0xbc07d6c0	-0.0082909465
9	0xbe6ba095	-0.23010476
10	0xbd102e32	-0.035200305
11	0x3e36384e	0.17794916
12	0xbd214bde	-0.039378993
13	0xbded8004	-0.11596683
14	0xb9535cec	-0.00020157144
15	0xbe68d3e7	-0.22737084
16	0xbe233c0d	-0.15940876
17	0x3d660476	0.056156598
18	0xbdebcadb	-0.11513301
19	0xbe937547	-0.28800413
20	0x3d63e0d7	0.055634346
21	0xbd97b14a	-0.07406862
22	0xbe843306	-0.25820178
23	0xbe82a261	-0.2551451
24	0xbe4411a4	-0.19147354
25	0xbe977d64	-0.29587853
26	0x3e38d90a	0.18051544
27	0xbe017fa3	-0.12646346
28	0x3e64f5f0	0.22359443
29	0xbe1dcca4	-0.15410095
30	0x3cba4ee0	0.022742689
31	0x3e2d1c5d	0.16905351
32	0x3e362b2a	0.17789903
33	0xbe9e0d9d	-0.3086976
34	0x3d9f2cbd	0.07772205
35	0x3e3608a3	0.17776732
36	0x3e79e00a	0.2440187
37	0x3e5ed4fc	0.21760935
38	0xbd3f9a2a	-0.04677788
39	0x3d013056	0.031540237
40	0x3de29ca8	0.11065036
41	0x3dbf3b8f	0.09337532
42	0xbd30d8ab	-0.04317538
43	0xbc5a8cc3	-0.013339224
44	0x3dfb3668	0.122662365
45	0x3c02bbda	0.007979358
46	0xbe8adc24	-0.2712108
47	0x3e2ba458	0.16761911
48	0x3d55c2b4	0.052187636
49	0xbca723f1	-0.02040288
50	0xbe8a6145	-0.27027336
51	0x3dff2d5f	0.12459826
52	0xbe8a6482	-0.27029806
53	0xbd863aa0	-0.065541506
54	0xbb466f18	-0.003027862
55	0x3dc27a42	0.09495975
56	0x3db85e27	0.09002333
57	0xbb553f8b	-0.0032539095
58	0x3e89bcbc	0.26901805
59	0x39aa022d	0.00032426548
60	0x3d7eeb07	0.06223586
61	0xbe84db9b	-0.25948796
62	0x3dfcaedb	0.123380385
63	0x3e553fc4	0.20825106
64	0x3db6b46e	0.08921133
65	0x3c96e704	0.018420704
66	0xbdc90e10	-0.09817135
67	0x3e328fde	0.17437693
68	0xbe08c94f	-0.13358043
69	0x3d2b4680	0.04181528
70	0x3e3eed6b	0.18645255
71	0xbd1517bc	-0.036399588
72	0x3d9ae4ce	0.07563172
73	0x3d84c660	0.064831495
74	0x3d1011ba	0.035173155
75	0x3cbbdc6f	0.02293226
76	0xbe13eb8a	-0.1444532
77	0xbe1635c5	-0.14668949
78	0x3d728de5	0.059217352
79	0xbd8ba0f1	-0.068178065
80	0xbe0ad4ee	-0.13557789
81	0xbd81b15e	-0.06332658
82	0x3dab1471	0.08353508
83	0xbe430d47	-0.19048034
84	0x3d75ade5	0.059980292
85	0x3df4988b	0.11943158
86	0xbdf2e5fd	-0.11860273
87	0x3c8cc0cb	0.017181775
88	0xbc856554	-0.016283669
89	0xbc4a7a8d	-0.01235832
90	0x3d1ba444	0.037998453
91	0x3d11bf2a	0.0355827
92	0xbe564c2c	-0.20927495
93	0xbe08db1a	-0.1336483
94	0x3bd48b30	0.006486319
95	0x3e069c4f	0.13145564
96	0x3d1490bf	0.036270853
97	0xbdafcb26	-0.08583669
98	0xbc516ae8	-0.012781836
99	0xbdbe7488	-0.0929957
100	0xbd6037d6	-0.05474075
101	0x3e2c5e9e	0.16832969
102	0xbe412011	-0.18859889
103	0xbdd31d80	-0.10308361
104	0xbdf882ce	-0.12134324
105	0x3e1f45b4	0.15553933
106	0x3d608e3a	0.054823138
107	0xbdb78253	-0.08960404
108	0x3dbc25c4	0.09186891
109	0xbde576bb	-0.11204287
110	0x3e5c47cb	0.21511762
111	0xbe55b168	-0.20868456
112	0x3e111654	0.14168674
113	0xbd705a64	-0.058679953
114	0xbcf7a4dd	-0.03022998
115	0xbe3e06e2	-0.18557313
116	0x3e09c55e	0.13454196
117	0xbd8707fa	-0.06593318
118	0xbe5c95c1	-0.21541502
119	0x3dc16178	0.09442419
120	0xbca6ff2a	-0.020385344
121	0xbe951629	-0.2911847
122	0xbcdcec48	-0.026968136
123	0x3e209aa8	0.15683997
124	0xbdaac0c3	-0.08337548
125	0xbd85945d	-0.06522439
126	0x3dcbb2c1	0.09946204
127	0xbe306ef4	-0.17229825
128	0x3db250aa	0.08706792
129	0xbcef57a5	-0.029216597
130	0x3d091e79	0.033476327
131	0xbc4e7003	-0.012599948
132	0x3e4c3cf8	0.19945133
133	0x3dcbe359	0.099554725
134	0xbdc8ad75	-0.09798709
135	0x3bb34d2f	0.0054718475
136	0x3d29ed96	0.041486345
137	0x3c9efcdd	0.019407684
138	0xbc117aac	-0.008879345
139	0xbda0c675	-0.07850353
140	0x3d6cd237	0.057817664
141	0x3d9e4783	0.077284835
142	0xbe153238	-0.14569938
143	0x3d47ef52	0.048812218
144	0x3e3e1d26	0.18565807
145	0x3e1071f4	0.1410597
146	0xbcd9c780	-0.026584387
147	0x3d23c5cd	0.03998356
148	0xbe31cd89	-0.17363562
149	0xbcb2b5ae	-0.021815147
150	0xbd5f7726	-0.05455699
151	0x3d28880a	0.041145362
152	0x3c8e5fbc	0.017379634
153	0xbaf76045	-0.0018873295
154	0x3dd3bc17	0.1033861
155	0xbaa0120d	-0.0012212411
156	0x3da17cc7	0.078851275
157	0xbba29b0e	-0.0049623316
158	0x3e039c59	0.1285261
159	0x3d9ec7b8	0.07752937
160	0x3d3a1306	0.0454283
161	0xbcf910b4	-0.030403472
162	0x3e0e844f	0.13917659
163	0x3bd75d7c	0.0065724235
164	0xbd4040c8	-0.04693678
165	0xbe0a6c2d	-0.13517828
166	0x3e1f9f27	0.15588056
167	0xbdae4059	-0.08508367
168	0xbe139fe5	-0.14416464
169	0xbd9a693f	-0.07539605
170	0xbd5b8711	-0.053595606
171	0xbe004729	-0.12527145
172	0x3e29b46b	0.1657273
173	0x3c011d10	0.007880464
174	0x3e43fd2f	0.1913955
175	0xbcb5377e	-0.022121187
176	0xbdb583b0	-0.08863008
177	0x3cb9d8a1	0.022686305
178	0x3d95c12a	0.07312234
179	0x3e044d7e	0.12920186
180	0x3e316d30	0.17326808
181	0x3d0699ee	0.032861643
182	0xbe2c5800	-0.16830444
183	0x3d9569b6	0.072955534
184	0x3d8f9dd4	0.07012525
185	0xbd0e0673	-0.03467412
186	0x3dd2b430	0.10288274
187	0xbc2800a8	-0.010254063
188	0x3e4ee4f3	0.20204525
189	0xbd42c440	-0.04755044
190	0xbe092fdb	-0.13397162
191	0xbd9df431	-0.077125914
192	0xbdcb0377	-0.0991277
193	0xbe2546b9	-0.1614026
194	0x3ded0cef	0.115747325
195	0xbc582c31	-0.01319413
196	0x3dfa0c4a	0.12209375
197	0xbe869611	-0.26286367
198	0xbe21e64e	-0.1581051
199	0x3e575ea0	0.2103219
200	0xbeab6a01	-0.33479312
201	0xbe8f89c4	-0.28034794
202	0x3d011cb5	0.031521518
203	0xbde33a15	-0.11095063
204	0xbe77bc2d	-0.24192877
205	0x3ddb2922	0.10701205
206	0x3d0b2e46	0.033979677
207	0xbdde1c0c	-0.10845193
208	0xbd0e0992	-0.034677096
209	0x3e13a42b	0.14418094
210	0x3cc4e069	0.024032788
211	0xbd1b3022	-0.0378877
212	0x3dcc421c	0.09973547
213	0x3d4519dd	0.04812037
214	0x3c548f0f	0.012973561
215	0x3ddd696b	0.108111225
216	0xbe67daed	-0.22642107
217	0x3e0b0aae	0.13578293
218	0x3d630fa3	0.055434834
219	0x3e1ecfc9	0.15508951
220	0xbd0c38d7	-0.034233894
221	0x3d7053f8	0.05867383
222	0xbe4bea91	-0.19913699
223	0x3e65475d	0.22390504
224	0x3cd9aca1	0.026571574
225	0x3e6f91b6	0.23395428
226	0xbcc61058	-0.024177715
227	0x3da6fe06	0.0815392
228	0xbe3fbd1a	-0.1872448
229	0x3d7ce90d	0.061745692
230	0x3d21c79d	0.039497007
231	0xbda8b116	-0.082369015
232	0xbe6904d7	-0.22755753
233	0x3c70647b	0.014672394
234	0x3d0ff305	0.03514387
235	0x3e8532e2	0.26015383
236	0xbe68dd6e	-0.22740719
237	0xbdeb1238	-0.11478084
238	0x3e8231e8	0.254287
239	0xbdcd4354	-0.100226074
240	0x3da2e22e	0.079532966
241	0xbe65e7a0	-0.22451639
242	0x3e582335	0.2110718
243	0xbe53442f	-0.20631479
244	0xbdaa25ce	-0.08307992
245	0x3d80c581	0.06287671
246	0x3df39baf	0.11894929
247	0xbde5ef1d	-0.11227248
248	0xbe1b9ee1	-0.15197326
249	0x3ccc8159	0.024964022
250	0xbdb38d52	-0.08767189
251	0x3c3912c9	0.011295983
252	0x3dc133eb	0.09433731
253	0x3e7db37d	0.247755
254	0xbe43e48d	-0.19130154
255	0xbe2b21c9	-0.16712107

relation_encoder.W_message.0.bias f4 [32]
0	0x3ccda225	0.02510173
1	0xba772730	-0.00094281416
2	0xbcc7cb21	-0.024388852
3	0x3be3634f	0.0069393287
4	0x3c5dd415	0.013539334
5	0x3d1b33b3	0.0378911
6	0xbcc82d3e	-0.024435636
7	0xbd7fef8e	-0.062484317
8	0xbca4e923	-0.0201307
9	0xbc977043	-0.018486148
10	0x3d58f61e	0.05296909
11	0xbd6754eb	-0.05647747
12	0xbcb82211	-0.022477182
13	0xbb615431	-0.0034382457
14	0x3d0f19cb	0.034936707
15	0x3ba7b7e0	0.005118355
16	0xbaa30190	-0.0012436379
17	0x3c08ff19	0.008361601
18	0xbc45821e	-0.012054948
19	0x3cadd99f	0.021221934
20	0xbd4ffba6	-0.0507771
21	0x3c3d090a	0.0115378
22	0xbd8714ca	-0.06595762
23	0xbc1b65a9	-0.009484687
24	0x3cf35ad8	0.029706404
25	0xbd7824ce	-0.060581975
26	0xba4f424c	-0.00079063023
27	0x3b908eac	0.004411539
28	0x3c7fd03d	0.015613613
29	0x3cd16347	0.025560034
30	0xbd3e7479	-0.046497796
31	0xbb9d2b66	-0.0047964333

relation_encoder.W_message.1.weight f4 [32, 96]
0	0x3d91a872	0.071122065
1	0x3d24e73b	0.04025958
2	0x3db27d19	0.08715267
3	0x3e1845d1	0.14870383
4	0xbc4f2e8a	-0.012645373
5	0x3dc0d92c	0.09416422
6	0x3c083e60	0.008315653
7	0x3ce626e9	0.028094726
8	0xbdf6280a	-0.120193556
9	0xbd0a6cf2	-0.033795305
10	0x3d2a0380	0.041507244
11	0x3e02c73e	0.12771317
12	0x3d88c6fa	0.06678577
13	0x3db72bd5	0.08943907
14	0x3d43e6c1	0.047827486
15	0x3d210ab2	0.03931684
16	0xbe9998d7	-0.2999942
17	0xbd12a9fb	-0.035806637
18	0x3da6decf	0.08147966
19	0x3e144121	0.1447797
20	0xbba94090	-0.005165167
21	0xbc82e05a	-0.01597612
22	0xbb6107e7	-0.0034336986
23	0x3e03ad21	0.12859012
24	0xbd9882b0	-0.07446802
25	0x3c238b80	0.00998199
26	0x3de0c27c	0.10974595
27	0xbe0bf319	-0.13666953
28	0x3cdea841	0.02717984
29	0x3d0668d1	0.032814804
30	0xbcad9265	-0.02118797
31	0x3cc2fe3b	0.023802867
32	0xbe24236e	-0.1602914
33	0x3e487b0b	0.19578187
34	0x3d77a55c	0.060460433
35	0x3ca0c7a9	0.019626455
36	0x3d638e0d	0.055555392
37	0xbe053bf7	-0.13011156
38	0x3d839770	0.06425369
39	0x3e4b1647	0.19832717
40	0x3d9fe735	0.07807771
41	0xbd12920f	-0.035783824
42	0xbe0bd0d2	-0.13653877
43	0xbdf195cf	-0.11796152
44	0xbd924a2b	-0.07143053
45	0xbd929ba0	-0.07158589
46	0xbd5d4407	-0.054019954
47	0x3db06e1b	0.08614751
48	0x3d823dce	0.063594446
49	0x3d681227	0.056657936
50	0x3dade4e0	0.0849092
51	0xbc299d6b	-0.010352473
52	0xbd80087d	-0.06251619
53	0x3cc7b596	0.02437858
54	0x3e33f38d	0.17573376
55	0x3e1791ca	0.14801708
56	0xbb094503	-0.0020945675
57	0x3d04d3d1	0.032428566
58	0x3d86f29a	0.06589241
59	0x3da823f9	0.08209986
60	0xbe3d0c0a	-0.18461624
61	0x3ce7b195	0.02828292
62	0xbe7a3f8d	-0.24438305
63	0xbe2be006	-0.16784677
64	0xbe056311	-0.13026072
65	0x3b55c436	0.0032618172
66	0xbc317128	-0.010830201
67	0x3dc9bb3e	0.09850167
68	0xbbebf7d4	-0.0072011743
69	0xbda3b22c	-0.07992968
70	0xbe29b92a	-0.1657454
71	0x3bd9a7ba	0.006642309
72	0x3e2943b5	0.16529734
73	0xbe7cba85	-0.24680527
74	0xbd1f5e4b	-0.038908284
75	0xbcd1a3f1	-0.025590869
76	0x3e31c62a	0.1736075
77	0xbd4c8538	-0.049931735
78	0xbde23a3f	-0.11046266
79	0x3e1598f1	0.14609124
80	0x3dc90904	0.09816173
81	0x3e1d7526	0.1537672
82	0xbe68ee1b	-0.2274708
83	0x3d8b4b80	0.0680151
84	0xbcfdc795	-0.030978957
85	0xba5dca64	-0.00084606395
86	0xbd91ea6a	-0.07124789
87	0xbd0fc352	-0.03509838
88	0xbcbadd5a	-0.022810627
89	0x3d2cee0e	0.042219214
90	0xbd06892d	-0.032845665
91	0x3da4c0f9	0.08044619
92	0xbd3674fa	-0.04454515
93	0xbe11c5a6	-0.14235553
94	0xbe2f32ba	-0.17109194
95	0x3e177b7a	0.14793196
96	0xbe008342	-0.12550071
97	0xbdcf50e9	-0.10122854
98	0xbe22e611	-0.15908076
99	0xbd054603	-0.03253747
100	0x3c86b886	0.01644541
101	0x3d1e35fe	0.03862571
102	0x3ce0c6e8	0.027438596
103	0x3e20e07d	0.15710635
104	0xbd86ed9d	-0.0658829
105	0x3d135bff	0.035976406
106	0x3d917724	0.071028024
107	0xbe07a809	-0.13247694
108	0x3c73a309	0.014870414
109	0x3d3948a6	0.0452353
110	0x3d1cf9bf	0.038324114
111	0xbe1f51b9	-0.15558518
112	0x3ca94c2a	0.0206662
113	0xbd542f31	-0.051802818
114	0x3e3260c7	0.1741973
115	0x3dd0140d	0.101600744
116	0xbdd637df	-0.10459875
117	0x3db1997e	0.086718544
118	0x3e7c575f	0.24642704
119	0xbdf0a892	-0.11750902
120	0x3ca5a1da	0.020218778
121	0x3e004e61	0.12529899
122	0xbe44c49c	-0.19215626
123	0x3d52cd95	0.05146559
124	0xbe0f91a8	-0.14020407
125	0x3d291cf7	0.04128739
126	0xbd8add0e	-0.06780444
127	0xbcf83ea9	-0.030303316
128	0xbdea0307	-0.11426359
129	0x3eb9c5da	0.3628376
130	0xbdc446db	-0.09583827
131	0xbe801dfd	-0.2502288
132	0xbd1b99a3	-0.037988316
133	0xbe954b3c	-0.29158962
134	0x3d6e2321	0.05813897
135	0x3e65f478	0.22456539
136	0xbe459117	-0.19293629
137	0xbc0f87fb	-0.008760448
138	0xbd09fef6	-0.033690415
139	0x3df9f435	0.12204782
140	0x3dcce953	0.100054406
141	0xbe4a0ec4	-0.19732195
142	0x3edb31c8	0.42811418
143	0xbe8ffc1a	-0.28122026
144	0xbece5141	-0.40296367
145	0xbea1f633	-0.31633148
146	0x3de42fc5	0.11141924
147	0xbd390a1d	-0.04517566
148	0x3edc673e	0.43047518
149	0xbd814602	-0.06312181
150	0x3ea7b596	0.32755727
151	0x3e5f3568	0.21797717
152	0xbcb1882e	-0.02167138
153	0x3de7cb20	0.1131804
154	0xbe6f634a	-0.2337772
155	0x3e10568b	0.14095514
156	0xbea1e95d	-0.31623355
157	0x3ed97b77	0.4247701
158	0xbe444bd5	-0.19169553
159	0xbebd4303	-0.36965188
160	0x3e150daf	0.14556001
161	0xbce0a67c	-0.027423136
162	0xbe12a143	-0.14319329
163	0x3d9f8a8e	0.07790099
164	0xbe33ee3c	-0.17571348
165	0xbd891fc7	-0.06695514
166	0x3e2d64f0	0.16933036
167	0xbd5370ba	-0.051621176
168	0xbe5e6645	-0.217187
169	0x3d97817a	0.073977426
170	0x3d95fcfe	0.07323645
171	0x3dbd8608	0.0925408
172	0xbcb0ec16	-0.02159695
173	0x3e20aba6	0.15690479
174	0xbd4f8295	-0.050661642
175	0x3b7f44f0	0.0038951002
176	0x3df372c4	0.11887124
177	0xbe53841d	-0.20655866
178	0xbe02df6f	-0.12780546
179	0x3de5ebaf	0.11226594
180	0xbc1f295e	-0.009714453
181	0x3dc69048	0.09695488
182	0x3dc35246	0.09537177
183	0xbdfb04a9	-0.12256748
184	0xbcd8ea56	-0.026478928
185	0xbdb3aa3c	-0.08772704
186	0xbdaed018	-0.085357845
187	0xbdf9b48e	-0.12192641
188	0x3a20a9c0	0.00061288103
189	0xbdd0d466	-0.10196762
190	0x3dbc1bd2	0.09184994
191	0xbd83cca4	-0.064355165
192	0x3dbe0281	0.09277821
193	0x3d62be4f	0.055357274
194	0x3da13ab9	0.078725286
195	0x3c4ebf45	0.012618844
196	0x3d1a5042	0.037674196
197	0xbdfe7a74	-0.124257
198	0xbb082628	-0.0020774696
199	0x3dd68a05	0.10475544
200	0xbdb4d165	-0.08829001
201	0xbcdbfb75	-0.026853302
202	0xbd95e7aa	-0.07319577
203	0x3dea7a38	0.114490926
204	0xbcac9a22	-0.02106959
205	0x3cc5e571	0.024157258
206	0x3de57d1a	0.11205502
207	0xbd8fe31e	-0.07025741
208	0xbc51797a	-0.01278531
209	0x3d97f354	0.07419458
210	0xbd4b04ea	-0.049565233
211	0xbccb8ae4	-0.024846502
212	0x3cc036a8	0.023463562
213	0x3d0fd090	0.03511101
214	0xbda61090	-0.08108628
215	0x3e5efe19	0.21776618
216	0xbda4a26e	-0.080387935
217	0x3d25c3c4	0.0404699
218	0x3caaf037	0.020866496
219	0x3dfd35d6	0.12363784
220	0xbe057674	-0.13033468
221	0xbdf4dad9	-0.119558044
222	0xbbfa9c2e	-0.0076480126
223	0xbd031ebd	-0.032011736
224	0xbda634b8	-0.08115524
225	0x3daf2c8a	0.08553417
226	0x3e08fdc6	0.13378057
227	0x3ddf544f	0.109047525
228	0xbe4868c3	-0.19571213
229	0xbe20eadd	-0.15714593
230	0x3c4c1b2f	0.012457653
231	0x3d812e52	0.06307663
232	0x3dd5ce62	0.10439755
233	0xbdcd7f5c	-0.100340575
234	0x3d5b4196	0.053529344
235	0x3cabdd21	0.020979466
236	0x3c4187c4	0.011812154
237	0xbe14ee04	-0.14543921
238	0xbddde000	-0.1083374
239	0x3dafe7c9	0.085891314
240	0xbc0f030d	-0.008728755
241	0xbdefd4b3	-0.11710491
242	0x3d521865	0.051292796
243	0x3dca560e	0.09879695
244	0x3e579851	0.21054198
245	0x3e057ea4	0.13036591
246	0xbdd7ec65	-0.105431356
247	0x3e132c7d	0.1437244
248	0xbdc64f64	-0.09683111
249	0x3e05c9e9	0.13065304
250	0x3cc97d20	0.024595797
251	0x3b22a83e	0.0024819518
252	0xbd1e5a2f	-0.038660225
253	0x3d76f9ef	0.06029695
254	0xbccbbd99	-0.02487068
255	0xbe1107a7	-0.14163075

relation_encoder.W_message.1.bias f4 [32]
0	0xbd83b2e4	-0.06430605
1	0x3cda10ac	0.026619278
2	0xbd3f95cc	-0.046773717
3	0x399de058	0.00030112523
4	0xbb32c5f7	-0.002727864
5	0xbc2c3d74	-0.010512698
6	0x3c145cb4	0.009055305
7	0x3b280193	0.0025635704
8	0x3bb9f189	0.005674545
9	0xbc3515fe	-0.011052607
10	0xbc42c7c1	-0.011888445
11	0xbd4623cd	-0.048373986
12	0x3ce70b0a	0.028203506
13	0xbc74f34c	-0.014950585
14	0xbc87f205	-0.016594896
15	0xbc38a253	-0.01126917
16	0x3d0fe7ac	0.03513305
17	0xbd06345f	-0.03276479
18	0xbc1da101	-0.009620906
19	0xbc3b9210	-0.011448398
20	0xbdd437f3	-0.10362234
21	0xbd843a40	-0.06456423
22	0xbd17bb95	-0.037044127
23	0x3bcb3c18	0.006202232
24	0xbc17f741	-0.0092752585
25	0xbd87d7b4	-0.06632939
26	0xbca65a4a	-0.020306725
27	0x3cc39a15	0.023877183
28	0xba9b6100	-0.001185447
29	0xbd7455a0	-0.05965197
30	0xbce0fa54	-0.027463116
31	0xbc72d5a8	-0.014821447
